final_models/mutag_model.pt (torch, 45962 bytes, 20 tensors)

mlp1.weight f4 [64, 14]
0	0x3ef7958f	0.48356292
1	0xbec14e8c	-0.3775524
2	0xbef9647b	-0.48709473
3	0xbe6ba9fc	-0.23014063
4	0x3ef8d2a2	0.485982
5	0xbeefce50	-0.4683709
6	0xbf03a195	-0.5141843
7	0x3e817901	0.2528763
8	0x3e11b2a6	0.14228305
9	0xbedda002	-0.4328614
10	0xbd53e960	-0.051736236
11	0x3e8a3cb7	0.26999447
12	0xbed7594f	-0.42060325
13	0x3e5df8e7	0.2167698
14	0x3e2394fc	0.15974802
15	0xbd9f4087	-0.077759795
16	0xbd374edc	-0.04475294
17	0xbec8ea1b	-0.39241108
18	0xbf88e775	-1.0695635
19	0xbe8dd584	-0.27701962
20	0xbfa88e41	-1.3168412
21	0x3e6ea6b0	0.23305774
22	0xbe8470af	-0.2586722
23	0x3f546b93	0.82976645
24	0xbfb965ba	-1.448417
25	0x3e5e1c5e	0.21690509
26	0xbf454945	-0.77064925
27	0xbe8920bc	-0.26782787
28	0xbe37bd2a	-0.17943254
29	0xbdebe968	-0.11519128
30	0x3e8209d9	0.25398138
31	0xbe0f8683	-0.14016156
32	0xbf239c15	-0.6391004
33	0x3edeef9b	0.4354218
34	0x3bd748fc	0.0065699797
35	0xbecbcfe0	-0.39807034
36	0x3d361068	0.04444924
37	0x3ecc1847	0.39862272
38	0xbeeefc24	-0.46676743
39	0xbebdeb3b	-0.3709353
40	0x3efc79ac	0.49311578
41	0x3ad69d7f	0.0016373842
42	0x3eac40de	0.3364324
43	0xbe892770	-0.267879
44	0xbf0ce7c7	-0.55041164
45	0x3e5b43be	0.2141256
46	0x3e7e3b26	0.24827251
47	0xbe974898	-0.29547572
48	0xbeac87fc	-0.33697498
49	0xbe43d136	-0.19122776
50	0x3d12e2f5	0.035860974
51	0xbe740087	-0.23828326
52	0x3e865d74	0.26243174
53	0x3e34363f	0.17598818
54	0xbe3888ab	-0.18020885
55	0xbcf7cc93	-0.030248916
56	0xbc3194d6	-0.010838708
57	0xbe55a308	-0.20862973
58	0x3f1fb630	0.6238737
59	0xbf26d657	-0.65170807
60	0xbf107327	-0.5642571
61	0x3ed57543	0.41691026
62	0x3ea514da	0.3224247
63	0xbe8cea26	-0.2752239
64	0x3e0a29ed	0.13492556
65	0x3e8d67b1	0.27618173
66	0x3ae89451	0.0017744397
67	0xbe00fb37	-0.12595831
68	0xbdb1b0ec	-0.08676323
69	0x3e1b785b	0.1518263
70	0xbc493fc9	-0.012283274
71	0xbd9ee35f	-0.07758211
72	0x3d4f72a7	0.05064645
73	0xbe8c3f2f	-0.27391955
74	0x3c51e035	0.012809803
75	0x3ddee05d	0.10882638
76	0xbe9f4ddd	-0.31114092
77	0x3bba4f3d	0.0056857155
78	0xbe31d7ae	-0.17367432
79	0xbda5cfcb	-0.08096274
80	0xbde6649c	-0.112496585
81	0xbeab3a77	-0.33443043
82	0x3df7020d	0.12060938
83	0x3ddb376c	0.1070393
84	0xbdcb1d9f	-0.09917759
85	0xbe250ec8	-0.1611892
86	0x3f72ca20	0.9483967
87	0xbe08de03	-0.13365941
88	0xbe920b81	-0.28524402
89	0x3f93fca7	1.1561478
90	0xbdac0bdc	-0.084006995
91	0xbd404a28	-0.04694572
92	0x3c0b9446	0.008519238
93	0x3f20bdb5	0.6278947
94	0x3e3dea54	0.1854642
95	0xbedc01c7	-0.42970106
96	0xbe893f3d	-0.2680606
97	0x3d2872ac	0.041124985
98	0xbe7d5080	-0.2473774
99	0xbe84eee3	-0.25963506
100	0xbd802605	-0.06257252
101	0xbe93eb03	-0.28890237
102	0xbe6fc300	-0.2341423
103	0xbdd2e306	-0.102972075
104	0xbd303f78	-0.04302928
105	0xbe78b0bc	-0.24286169
106	0xbe8bfe57	-0.27342483
107	0x3c8f8df0	0.017523736
108	0xbe8108bd	-0.2520198
109	0xbe08ca94	-0.13358527
110	0xbe30b688	-0.1725713
111	0xbe3db8da	-0.18527547
112	0x3dfe0838	0.12403911
113	0xbe348fbb	-0.17632954
114	0xbee50b5d	-0.44735232
115	0xbe185ff8	-0.14880359
116	0xbdecd132	-0.11563338
117	0xbe811a51	-0.2521539
118	0xbe7d27c8	-0.24722207
119	0xbe1b0462	-0.1513839
120	0xbe02e950	-0.12784314
121	0xbe05ecde	-0.13078639
122	0x3e50f4ad	0.20405836
123	0xbeeab814	-0.45843565
124	0xbe22e5ec	-0.1590802
125	0x3dd18666	0.102307126
126	0xbe0507a2	-0.12991193
127	0x3c1be805	0.009515767
128	0x3f240104	0.6406405
129	0xbef93303	-0.4867173
130	0x3e2a08a8	0.16604865
131	0x3f01a6e3	0.50645274
132	0x3f2e8ef5	0.68186885
133	0xbef0daef	-0.47042033
134	0x3e74707c	0.23871034
135	0x3f3050e1	0.6887341
136	0x3e27554d	0.16341133
137	0x3a6c506c	0.00090146693
138	0x3d54a734	0.05191727
139	0xbe5a4c89	-0.21318258
140	0xbec7c165	-0.39014736
141	0x3f7ae320	0.98002815
142	0x3eb2da12	0.34932
143	0x3eb86207	0.3601229
144	0xbeea66b5	-0.45781484
145	0x3e7fc3c0	0.24977016
146	0xbbaabf3f	-0.0052107866
147	0x3f54f137	0.83180565
148	0x3e11e9ca	0.1424934
149	0xbc97c803	-0.01852799
150	0x3ec76026	0.38940543
151	0x3df78be7	0.12087231
152	0xbd28fa60	-0.0412544
153	0x3c909c45	0.01765264
154	0xbeffc98d	-0.4995846
155	0x3f5318c8	0.8245969
156	0xbe937c2c	-0.28805673
157	0xbf437043	-0.7634317
158	0xbe902e47	-0.28160307
159	0x3f2014fb	0.62532014
160	0xbe58c672	-0.21169451
161	0xbf64f71d	-0.89439565
162	0xbec70789	-0.38872936
163	0x3e3e1bc5	0.1856528
164	0xbec31ebd	-0.3810939
165	0xbdb684be	-0.08912037
166	0x3e3e8184	0.18604094
167	0xbe6d7880	-0.23190498
168	0xbed5fef3	-0.41796073
169	0x3d1df2bd	0.03856157
170	0xbf383344	-0.71953225
171	0x3e2d497d	0.16922565
172	0x3ea7afe6	0.32751387
173	0xbe97e05a	-0.29663354
174	0x3db77d36	0.08959429
175	0x3f3909ed	0.7228077
176	0x3e885893	0.26630077
177	0xbcacf8b8	-0.021114692
178	0x3dcecfbd	0.10098217
179	0xbe9dbf6b	-0.30810103
180	0x3e967a07	0.29389974
181	0x3c4c12b2	0.012455629
182	0x3e3768af	0.17911027
183	0x3c29a6aa	0.010354677
184	0xbf279561	-0.6546231
185	0x3e97e759	0.29668692
186	0x3ea0a929	0.3137906
187	0xbedde2c6	-0.43337077
188	0xbe840120	-0.25782108
189	0xbe46017e	-0.19336507
190	0xbe0e3bfe	-0.13890073
191	0xbe69c9e4	-0.22830921
192	0x3d8357f3	0.06413259
193	0xbe99d357	-0.30044052
194	0xbecfa318	-0.40554118
195	0xbe489d82	-0.19591334
196	0x3ebadfd6	0.36498898
197	0xbecae9a1	-0.3963137
198	0xbede7e17	-0.43455574
199	0xbe7f1b80	-0.24912834
200	0x3e772d79	0.2413844
201	0x3bce34c0	0.0062929094
202	0xbebe8a95	-0.37215105
203	0xbe5e78e9	-0.21725811
204	0x3e9ed28a	0.31020004
205	0x3edb3d6c	0.428203
206	0x3d340df1	0.043958608
207	0x3e07723e	0.13227174
208	0xbe9ad50d	-0.3024067
209	0x3dfddd1d	0.1239569
210	0xbf219839	-0.631229
211	0x3f70af67	0.9401764
212	0x3f055298	0.52079153
213	0xbe905ddd	-0.28196612
214	0x3e564696	0.20925364
215	0x3eb2d6ab	0.34929404
216	0xbf87fd15	-1.062411
217	0xbf33cd94	-0.7023556
218	0xbea8cc88	-0.32968545
219	0xbe20735b	-0.15669005
220	0xbf7b41ac	-0.9814708
221	0x3e1a5c6c	0.15074319
222	0x3f2196a8	0.6312051
223	0xbe8af9b6	-0.2714364
224	0xbf8f9004	-1.1215825
225	0x3eadec7f	0.33969495
226	0xbebf4746	-0.37359065
227	0xbf860028	-1.0468798
228	0x3e266a8a	0.16251579
229	0x3f4e7bd1	0.8065768
230	0x3e5044dc	0.20338768
231	0xbf3eaf00	-0.7448578
232	0x3f095718	0.5364852
233	0x3d6b3363	0.057422053
234	0x3f0a0376	0.5391153
235	0x3da8f1c8	0.08249241
236	0x3d21c0c6	0.039490484
237	0xbe8cb73d	-0.2748355
238	0x3e5e1e1e	0.21691176
239	0x3cfa11ff	0.03052616
240	0xbf0308ab	-0.511851
241	0xbed00bbd	-0.40633956
242	0x3e4ff539	0.20308389
243	0xbf160b18	-0.5861068
244	0xbebc3854	-0.36761725
245	0x3e3d6d8f	0.18498825
246	0x3e2d95de	0.16951701
247	0xbe9bdd11	-0.30442098
248	0x3d388d35	0.04505654
249	0x3e03bb0d	0.12864323
250	0x3e44465c	0.19167465
251	0x3e806e0b	0.25083956
252	0x3e74e8ae	0.23916885
253	0x3f1a60e9	0.60304123
254	0xbea6ec04	-0.3260194
255	0xbf00b1e1	-0.5027142

mlp1.bias f4 [64]
0	0x3e0800f7	0.13281618
1	0xbe9fafa7	-0.311887
2	0xbdc4b94c	-0.09605655
3	0x3e97335a	0.29531366
4	0xbd24ef74	-0.040267423
5	0x3cc274c0	0.023737311
6	0x3dcf6a62	0.10127713
7	0x3dd8173b	0.10551306
8	0xbe3f6318	-0.18690145
9	0x39a210ee	0.0003091166
10	0xbd94ed55	-0.0727183
11	0x3eca55fe	0.39518732
12	0x3d922be5	0.071372785
13	0x3e83adc4	0.2571851
14	0xbd981b17	-0.07427042
15	0x3eecbeee	0.46239418
16	0x3d4866e1	0.048926238
17	0xbd3f6cb8	-0.04673454
18	0xbec7fdd5	-0.39060846
19	0xbea9a64e	-0.33134693
20	0xbc311387	-0.010807878
21	0x3d0108b2	0.031502433
22	0x3d8e444e	0.06946622
23	0xbe386b2b	-0.18009631
24	0xbd8f8355	-0.070074715
25	0xbd863f4c	-0.06555042
26	0xbe9bff21	-0.30468085
27	0xbecf9e56	-0.40550488
28	0xbe76f9c3	-0.24118714
29	0x3ea41481	0.32046893
30	0xbe9a4b29	-0.30135468
31	0xbe087042	-0.13324073
32	0x3e11ba45	0.14231212
33	0xbe663abf	-0.22483347
34	0xbcd422be	-0.025895473
35	0x3ea35b50	0.31905603
36	0x3e33add5	0.1754678
37	0xbe6204db	-0.22072165
38	0x3e0f4c77	0.13994013
39	0x3bd9dc31	0.0066485633
40	0x3e332f72	0.17498568
41	0xbd52b4ab	-0.05144183
42	0xbe497be6	-0.1967617
43	0xbe2b87bf	-0.16751002
44	0x3d6bb5cf	0.057546433
45	0xbd44e648	-0.048071176
46	0xbde02fbb	-0.10946604
47	0x3e1740e4	0.14770848
48	0x3e8c82d5	0.27443567
49	0xbe180bef	-0.14848302
50	0xbd2f9789	-0.042869125
51	0x3ca4d6d8	0.020121977
52	0x3d6b4402	0.057437904
53	0xbe19185e	-0.14950702
54	0xbc83b476	-0.016077261
55	0xbe2b8386	-0.16749391
56	0xbe9894bf	-0.29800984
57	0xbe77ea5b	-0.24210493
58	0xbd98386e	-0.07432638
59	0xbd1ca1d5	-0.038240273
60	0xbdc21756	-0.09477107
61	0xbe0defc5	-0.13860996
62	0xbd8939a1	-0.06700445
63	0xbe3042e9	-0.17213024

conv1.nn.weight f4 [64, 14]
0	0x3ef7958f	0.48356292
1	0xbec14e8c	-0.3775524
2	0xbef9647b	-0.48709473
3	0xbe6ba9fc	-0.23014063
4	0x3ef8d2a2	0.485982
5	0xbeefce50	-0.4683709
6	0xbf03a195	-0.5141843
7	0x3e817901	0.2528763
8	0x3e11b2a6	0.14228305
9	0xbedda002	-0.4328614
10	0xbd53e960	-0.051736236
11	0x3e8a3cb7	0.26999447
12	0xbed7594f	-0.42060325
13	0x3e5df8e7	0.2167698
14	0x3e2394fc	0.15974802
15	0xbd9f4087	-0.077759795
16	0xbd374edc	-0.04475294
17	0xbec8ea1b	-0.39241108
18	0xbf88e775	-1.0695635
19	0xbe8dd584	-0.27701962
20	0xbfa88e41	-1.3168412
21	0x3e6ea6b0	0.23305774
22	0xbe8470af	-0.2586722
23	0x3f546b93	0.82976645
24	0xbfb965ba	-1.448417
25	0x3e5e1c5e	0.21690509
26	0xbf454945	-0.77064925
27	0xbe8920bc	-0.26782787
28	0xbe37bd2a	-0.17943254
29	0xbdebe968	-0.11519128
30	0x3e8209d9	0.25398138
31	0xbe0f8683	-0.14016156
32	0xbf239c15	-0.6391004
33	0x3edeef9b	0.4354218
34	0x3bd748fc	0.0065699797
35	0xbecbcfe0	-0.39807034
36	0x3d361068	0.04444924
37	0x3ecc1847	0.39862272
38	0xbeeefc24	-0.46676743
39	0xbebdeb3b	-0.3709353
40	0x3efc79ac	0.49311578
41	0x3ad69d7f	0.0016373842
42	0x3eac40de	0.3364324
43	0xbe892770	-0.267879
44	0xbf0ce7c7	-0.55041164
45	0x3e5b43be	0.2141256
46	0x3e7e3b26	0.24827251
47	0xbe974898	-0.29547572
48	0xbeac87fc	-0.33697498
49	0xbe43d136	-0.19122776
50	0x3d12e2f5	0.035860974
51	0xbe740087	-0.23828326
52	0x3e865d74	0.26243174
53	0x3e34363f	0.17598818
54	0xbe3888ab	-0.18020885
55	0xbcf7cc93	-0.030248916
56	0xbc3194d6	-0.010838708
57	0xbe55a308	-0.20862973
58	0x3f1fb630	0.6238737
59	0xbf26d657	-0.65170807
60	0xbf107327	-0.5642571
61	0x3ed57543	0.41691026
62	0x3ea514da	0.3224247
63	0xbe8cea26	-0.2752239
64	0x3e0a29ed	0.13492556
65	0x3e8d67b1	0.27618173
66	0x3ae89451	0.0017744397
67	0xbe00fb37	-0.12595831
68	0xbdb1b0ec	-0.08676323
69	0x3e1b785b	0.1518263
70	0xbc493fc9	-0.012283274
71	0xbd9ee35f	-0.07758211
72	0x3d4f72a7	0.05064645
73	0xbe8c3f2f	-0.27391955
74	0x3c51e035	0.012809803
75	0x3ddee05d	0.10882638
76	0xbe9f4ddd	-0.31114092
77	0x3bba4f3d	0.0056857155
78	0xbe31d7ae	-0.17367432
79	0xbda5cfcb	-0.08096274
80	0xbde6649c	-0.112496585
81	0xbeab3a77	-0.33443043
82	0x3df7020d	0.12060938
83	0x3ddb376c	0.1070393
84	0xbdcb1d9f	-0.09917759
85	0xbe250ec8	-0.1611892
86	0x3f72ca20	0.9483967
87	0xbe08de03	-0.13365941
88	0xbe920b81	-0.28524402
89	0x3f93fca7	1.1561478
90	0xbdac0bdc	-0.084006995
91	0xbd404a28	-0.04694572
92	0x3c0b9446	0.008519238
93	0x3f20bdb5	0.6278947
94	0x3e3dea54	0.1854642
95	0xbedc01c7	-0.42970106
96	0xbe893f3d	-0.2680606
97	0x3d2872ac	0.041124985
98	0xbe7d5080	-0.2473774
99	0xbe84eee3	-0.25963506
100	0xbd802605	-0.06257252
101	0xbe93eb03	-0.28890237
102	0xbe6fc300	-0.2341423
103	0xbdd2e306	-0.102972075
104	0xbd303f78	-0.04302928
105	0xbe78b0bc	-0.24286169
106	0xbe8bfe57	-0.27342483
107	0x3c8f8df0	0.017523736
108	0xbe8108bd	-0.2520198
109	0xbe08ca94	-0.13358527
110	0xbe30b688	-0.1725713
111	0xbe3db8da	-0.18527547
112	0x3dfe0838	0.12403911
113	0xbe348fbb	-0.17632954
114	0xbee50b5d	-0.44735232
115	0xbe185ff8	-0.14880359
116	0xbdecd132	-0.11563338
117	0xbe811a51	-0.2521539
118	0xbe7d27c8	-0.24722207
119	0xbe1b0462	-0.1513839
120	0xbe02e950	-0.12784314
121	0xbe05ecde	-0.13078639
122	0x3e50f4ad	0.20405836
123	0xbeeab814	-0.45843565
124	0xbe22e5ec	-0.1590802
125	0x3dd18666	0.102307126
126	0xbe0507a2	-0.12991193
127	0x3c1be805	0.009515767
128	0x3f240104	0.6406405
129	0xbef93303	-0.4867173
130	0x3e2a08a8	0.16604865
131	0x3f01a6e3	0.50645274
132	0x3f2e8ef5	0.68186885
133	0xbef0daef	-0.47042033
134	0x3e74707c	0.23871034
135	0x3f3050e1	0.6887341
136	0x3e27554d	0.16341133
137	0x3a6c506c	0.00090146693
138	0x3d54a734	0.05191727
139	0xbe5a4c89	-0.21318258
140	0xbec7c165	-0.39014736
141	0x3f7ae320	0.98002815
142	0x3eb2da12	0.34932
143	0x3eb86207	0.3601229
144	0xbeea66b5	-0.45781484
145	0x3e7fc3c0	0.24977016
146	0xbbaabf3f	-0.0052107866
147	0x3f54f137	0.83180565
148	0x3e11e9ca	0.1424934
149	0xbc97c803	-0.01852799
150	0x3ec76026	0.38940543
151	0x3df78be7	0.12087231
152	0xbd28fa60	-0.0412544
153	0x3c909c45	0.01765264
154	0xbeffc98d	-0.4995846
155	0x3f5318c8	0.8245969
156	0xbe937c2c	-0.28805673
157	0xbf437043	-0.7634317
158	0xbe902e47	-0.28160307
159	0x3f2014fb	0.62532014
160	0xbe58c672	-0.21169451
161	0xbf64f71d	-0.89439565
162	0xbec70789	-0.38872936
163	0x3e3e1bc5	0.1856528
164	0xbec31ebd	-0.3810939
165	0xbdb684be	-0.08912037
166	0x3e3e8184	0.18604094
167	0xbe6d7880	-0.23190498
168	0xbed5fef3	-0.41796073
169	0x3d1df2bd	0.03856157
170	0xbf383344	-0.71953225
171	0x3e2d497d	0.16922565
172	0x3ea7afe6	0.32751387
173	0xbe97e05a	-0.29663354
174	0x3db77d36	0.08959429
175	0x3f3909ed	0.7228077
176	0x3e885893	0.26630077
177	0xbcacf8b8	-0.021114692
178	0x3dcecfbd	0.10098217
179	0xbe9dbf6b	-0.30810103
180	0x3e967a07	0.29389974
181	0x3c4c12b2	0.012455629
182	0x3e3768af	0.17911027
183	0x3c29a6aa	0.010354677
184	0xbf279561	-0.6546231
185	0x3e97e759	0.29668692
186	0x3ea0a929	0.3137906
187	0xbedde2c6	-0.43337077
188	0xbe840120	-0.25782108
189	0xbe46017e	-0.19336507
190	0xbe0e3bfe	-0.13890073
191	0xbe69c9e4	-0.22830921
192	0x3d8357f3	0.06413259
193	0xbe99d357	-0.30044052
194	0xbecfa318	-0.40554118
195	0xbe489d82	-0.19591334
196	0x3ebadfd6	0.36498898
197	0xbecae9a1	-0.3963137
198	0xbede7e17	-0.43455574
199	0xbe7f1b80	-0.24912834
200	0x3e772d79	0.2413844
201	0x3bce34c0	0.0062929094
202	0xbebe8a95	-0.37215105
203	0xbe5e78e9	-0.21725811
204	0x3e9ed28a	0.31020004
205	0x3edb3d6c	0.428203
206	0x3d340df1	0.043958608
207	0x3e07723e	0.13227174
208	0xbe9ad50d	-0.3024067
209	0x3dfddd1d	0.1239569
210	0xbf219839	-0.631229
211	0x3f70af67	0.9401764
212	0x3f055298	0.52079153
213	0xbe905ddd	-0.28196612
214	0x3e564696	0.20925364
215	0x3eb2d6ab	0.34929404
216	0xbf87fd15	-1.062411
217	0xbf33cd94	-0.7023556
218	0xbea8cc88	-0.32968545
219	0xbe20735b	-0.15669005
220	0xbf7b41ac	-0.9814708
221	0x3e1a5c6c	0.15074319
222	0x3f2196a8	0.6312051
223	0xbe8af9b6	-0.2714364
224	0xbf8f9004	-1.1215825
225	0x3eadec7f	0.33969495
226	0xbebf4746	-0.37359065
227	0xbf860028	-1.0468798
228	0x3e266a8a	0.16251579
229	0x3f4e7bd1	0.8065768
230	0x3e5044dc	0.20338768
231	0xbf3eaf00	-0.7448578
232	0x3f095718	0.5364852
233	0x3d6b3363	0.057422053
234	0x3f0a0376	0.5391153
235	0x3da8f1c8	0.08249241
236	0x3d21c0c6	0.039490484
237	0xbe8cb73d	-0.2748355
238	0x3e5e1e1e	0.21691176
239	0x3cfa11ff	0.03052616
240	0xbf0308ab	-0.511851
241	0xbed00bbd	-0.40633956
242	0x3e4ff539	0.20308389
243	0xbf160b18	-0.5861068
244	0xbebc3854	-0.36761725
245	0x3e3d6d8f	0.18498825
246	0x3e2d95de	0.16951701
247	0xbe9bdd11	-0.30442098
248	0x3d388d35	0.04505654
249	0x3e03bb0d	0.12864323
250	0x3e44465c	0.19167465
251	0x3e806e0b	0.25083956
252	0x3e74e8ae	0.23916885
253	0x3f1a60e9	0.60304123
254	0xbea6ec04	-0.3260194
255	0xbf00b1e1	-0.5027142

conv1.nn.bias f4 [64]
0	0x3e0800f7	0.13281618
1	0xbe9fafa7	-0.311887
2	0xbdc4b94c	-0.09605655
3	0x3e97335a	0.29531366
4	0xbd24ef74	-0.040267423
5	0x3cc274c0	0.023737311
6	0x3dcf6a62	0.10127713
7	0x3dd8173b	0.10551306
8	0xbe3f6318	-0.18690145
9	0x39a210ee	0.0003091166
10	0xbd94ed55	-0.0727183
11	0x3eca55fe	0.39518732
12	0x3d922be5	0.071372785
13	0x3e83adc4	0.2571851
14	0xbd981b17	-0.07427042
15	0x3eecbeee	0.46239418
16	0x3d4866e1	0.048926238
17	0xbd3f6cb8	-0.04673454
18	0xbec7fdd5	-0.39060846
19	0xbea9a64e	-0.33134693
20	0xbc311387	-0.010807878
21	0x3d0108b2	0.031502433
22	0x3d8e444e	0.06946622
23	0xbe386b2b	-0.18009631
24	0xbd8f8355	-0.070074715
25	0xbd863f4c	-0.06555042
26	0xbe9bff21	-0.30468085
27	0xbecf9e56	-0.40550488
28	0xbe76f9c3	-0.24118714
29	0x3ea41481	0.32046893
30	0xbe9a4b29	-0.30135468
31	0xbe087042	-0.13324073
32	0x3e11ba45	0.14231212
33	0xbe663abf	-0.22483347
34	0xbcd422be	-0.025895473
35	0x3ea35b50	0.31905603
36	0x3e33add5	0.1754678
37	0xbe6204db	-0.22072165
38	0x3e0f4c77	0.13994013
39	0x3bd9dc31	0.0066485633
40	0x3e332f72	0.17498568
41	0xbd52b4ab	-0.05144183
42	0xbe497be6	-0.1967617
43	0xbe2b87bf	-0.16751002
44	0x3d6bb5cf	0.057546433
45	0xbd44e648	-0.048071176
46	0xbde02fbb	-0.10946604
47	0x3e1740e4	0.14770848
48	0x3e8c82d5	0.27443567
49	0xbe180bef	-0.14848302
50	0xbd2f9789	-0.042869125
51	0x3ca4d6d8	0.020121977
52	0x3d6b4402	0.057437904
53	0xbe19185e	-0.14950702
54	0xbc83b476	-0.016077261
55	0xbe2b8386	-0.16749391
56	0xbe9894bf	-0.29800984
57	0xbe77ea5b	-0.24210493
58	0xbd98386e	-0.07432638
59	0xbd1ca1d5	-0.038240273
60	0xbdc21756	-0.09477107
61	0xbe0defc5	-0.13860996
62	0xbd8939a1	-0.06700445
63	0xbe3042e9	-0.17213024

conv1.lin.weight f4 [14, 3]
0	0x3ed25800	0.41082764
1	0x3e998795	0.29986253
2	0xbf0a8001	-0.5410157
3	0xbc1bc3c5	-0.009507124
4	0xbbd1d10b	-0.0064030937
5	0xbeadac64	-0.33920586
6	0x3e96d814	0.2946173
7	0xbd815087	-0.063141875
8	0x3e917443	0.28409013
9	0x3dafb95a	0.08580275
10	0x3ddc6637	0.107616834
11	0xbf03ae0d	-0.51437455
12	0x3b55eb66	0.003264153
13	0x3f083fb4	0.53222203
14	0xbf20f264	-0.6286986
15	0x3ed800ce	0.42188114
16	0x3ea9847e	0.33108896
17	0xbdb8de68	-0.090267956
18	0xbd1f2cf6	-0.038861237
19	0x3e9721a4	0.29517853
20	0x3da9c3b9	0.08289284
21	0x3df1ba0d	0.118030645
22	0xbcf9b336	-0.030480962
23	0x3f0fef44	0.56224465
24	0xbe6ea1b7	-0.23303877
25	0xbc92f418	-0.017938659
26	0xbe3be6c6	-0.18349752
27	0x3e69c618	0.22829473
28	0x3eaacb57	0.3335826
29	0xbe72838a	-0.2368299
30	0xbd818c00	-0.06325531
31	0x3eaed479	0.3414648
32	0xbe8f3e39	-0.2797716
33	0x3e96e7ca	0.29473716
34	0xbeca7cf1	-0.39548448
35	0x3d4c8123	0.049927842
36	0xbed455e8	-0.4147179
37	0x3d4ce020	0.05001843
38	0x3f05e0fa	0.5229641
39	0xbe751204	-0.23932654
40	0xbeb2fa4d	-0.3495659
41	0xbdae2ac9	-0.08504254

conv1.lin.bias f4 [14]
0	0xbebc97e4	-0.36834633
1	0xbd664aa1	-0.056223515
2	0xbeba9bfd	-0.36447135
3	0xbe4a3f9f	-0.19750832
4	0xbdeed5c6	-0.11661868
5	0xbe446255	-0.19178136
6	0x3c726e5f	0.014796822
7	0x3a7d877d	0.00096713734
8	0x3dba8bf9	0.09108729
9	0xbeac9749	-0.3370917
10	0xbd8f406d	-0.0699471
11	0x3e07fb70	0.1327951
12	0xbe813d02	-0.25241858
13	0x3e5302b4	0.206065

mlp2.weight f4 [64, 64]
0	0xbe6f19bb	-0.23349659
1	0x3c819d2a	0.015822012
2	0x3e36a292	0.17835453
3	0xbf061253	-0.5237171
4	0xbd47a26d	-0.048738886
5	0xbc1d4e6b	-0.009601216
6	0x3e9cd8a1	0.30634025
7	0xbd688de9	-0.05677596
8	0x3d9e71c0	0.0773654
9	0x3e30b3a9	0.17256035
10	0x3e404a10	0.18778253
11	0xbd267895	-0.04064234
12	0x3f21a8c0	0.6314812
13	0xbed72d1a	-0.42026597
14	0xbc89d66a	-0.016825873
15	0xbf363ea0	-0.7118931
16	0x3eaa2761	0.3323317
17	0xbdec3613	-0.11533751
18	0xbd442981	-0.047891144
19	0xbddf75a4	-0.1091111
20	0x3e491173	0.19635563
21	0x3e06f6e5	0.1318012
22	0xbe170427	-0.14747678
23	0x3e2c676f	0.16836332
24	0x3cf3ef18	0.029777095
25	0xbe82a5a6	-0.25517005
26	0x3d438f35	0.047743995
27	0xbc158e64	-0.009128187
28	0xbe7ce42f	-0.2469642
29	0xbe5fcaba	-0.21854678
30	0xbcdfa489	-0.027300136
31	0x3cc9f231	0.024651619
32	0x3e6a583c	0.22885221
33	0x3da311fd	0.07962415
34	0xbd3b72da	-0.045763828
35	0xbdc90963	-0.098162435
36	0x3e5843ea	0.21119657
37	0xbeb7fe48	-0.3593619
38	0xbe235a74	-0.15952474
39	0x3d139f8e	0.036040835
40	0xbd019727	-0.03163829
41	0xbe81560c	-0.2526096
42	0x3db2e526	0.08735113
43	0x3d8d7e70	0.06908882
44	0xbd1b6225	-0.037935395
45	0x3c4236b2	0.011853861
46	0x3eb51022	0.3536387
47	0x3e2d9444	0.1695109
48	0x3dd453c4	0.103675395
49	0xbe6f5e5c	-0.23375839
50	0xbe008cd1	-0.12553717
51	0xbe15bd00	-0.14622879
52	0x3d1a3396	0.037646852
53	0x3e05a0a8	0.13049567
54	0xbd911135	-0.0708336
55	0xbe994846	-0.29937953
56	0x3ee17980	0.4403801
57	0x3ec7f2ef	0.3905253
58	0x3e39a695	0.18129952
59	0x3f1159ec	0.56777835
60	0x3e2f8946	0.1714221
61	0x3e8d666f	0.27617213
62	0x3e810f5c	0.2520703
63	0x3ec7db45	0.39034477
64	0xbde35ad2	-0.11101307
65	0x3d7f5b09	0.062342677
66	0x3da906fc	0.08253285
67	0xbdc48267	-0.09595185
68	0xbe023d7d	-0.12718768
69	0x3cec40b4	0.028839447
70	0xbdfc80f3	-0.123292826
71	0xbdec31d0	-0.115329385
72	0xbdf4359e	-0.11924289
73	0x3d64b1cc	0.055833623
74	0xbe05b26b	-0.13056342
75	0xbdce5c25	-0.10076169
76	0xbdc94ffb	-0.09829708
77	0x3d89558b	0.06705769
78	0x3d317e9f	0.043333646
79	0x3caf361d	0.021388108
80	0xbd963d68	-0.07335931
81	0xbdfbb871	-0.12291039
82	0xbbc12c05	-0.00589514
83	0x3c851d22	0.016249243
84	0x3d96c563	0.07361867
85	0xbdefe13c	-0.11712882
86	0xbe003cb8	-0.12523162
87	0x3cfbda03	0.030743605
88	0xbc8d6fa1	-0.017265143
89	0x3da9f51a	0.082987025
90	0xbd9be196	-0.076113865
91	0x3dff438e	0.12464057
92	0x3d481830	0.048851192
93	0xbd832b5c	-0.064047545
94	0xbd775948	-0.06038788
95	0xb9eb6dcf	-0.00044904507
96	0xbd4ff638	-0.050771922
97	0xbdcceacd	-0.10005722
98	0xbdc526e2	-0.09626557
99	0xba5738ac	-0.0008210044
100	0x3c8ce00d	0.01719668
101	0x3d8d4aae	0.0689901
102	0xbdc358b9	-0.09538407
103	0xbd972288	-0.07379633
104	0xbdb45633	-0.08805504
105	0xbdb37a77	-0.08763593
106	0x3dfce156	0.12347667
107	0xbde3462a	-0.11097367
108	0xbdcb7e55	-0.09936205
109	0x3d1fd7f7	0.03902432
110	0x3d6406d9	0.055670593
111	0xbdea4a0e	-0.11439906
112	0xbd80d888	-0.062913
113	0x3d19da40	0.037561655
114	0x3a55aab3	0.00081507413
115	0xbdfc811c	-0.12329313
116	0xbe1b71fc	-0.151802
117	0xbe000860	-0.12503195
118	0xbc328d9b	-0.010898019
119	0xbd6e5ea0	-0.05819571
120	0xbe1c22a1	-0.15247585
121	0x3dfc63f6	0.123237535
122	0x3be975aa	0.0071246224
123	0xbdb12b8f	-0.08650886
124	0xbca16a10	-0.019703895
125	0xbd35f370	-0.044421613
126	0xbdad9aa6	-0.084767625
127	0xbdec85e8	-0.11548978
128	0x3d137201	0.035997394
129	0xbe16797e	-0.14694783
130	0xbdd69d26	-0.104791924
131	0x3d1c900d	0.038223315
132	0xbdd50a64	-0.104023725
133	0xbd650332	-0.05591125
134	0xbd479d70	-0.04873413
135	0xbe0b3646	-0.13594922
136	0xbe102814	-0.14077789
137	0xbe029818	-0.12753332
138	0xbdee6b5f	-0.11641573
139	0xbd639a19	-0.05556688
140	0x3da89894	0.08232227
141	0x3a936a71	0.0011246932
142	0x3d9e2aaf	0.07722985
143	0xbdd424a3	-0.103585504
144	0xbd64a12a	-0.05581776
145	0x3d90244a	0.070381716
146	0x3c24aec5	0.010051434
147	0xbdbc6cc1	-0.09200431
148	0x3da8acb4	0.082360655
149	0xbdc12cf6	-0.09432404
150	0x3dc780c3	0.09741356
151	0xbe0034b6	-0.12520108
152	0x3d1ad304	0.037798896
153	0xbdbd5f28	-0.09246665
154	0xbe115253	-0.1419156
155	0x3d567349	0.05235604
156	0xbe141b5b	-0.1446356
157	0xbd664850	-0.056221306
158	0xbd1c5030	-0.03816241
159	0xbd74c0bd	-0.059754122
160	0xbd0da263	-0.034578692
161	0x3d28c560	0.041203856
162	0xbd8a6ef9	-0.067594476
163	0x3da44f90	0.08022988
164	0x3d1018f6	0.035180055
165	0xbdc67202	-0.09689714
166	0x3bb0923c	0.0053885262
167	0xbd2c3be0	-0.04204929
168	0xbe08b7d4	-0.13351375
169	0xbe27b2d9	-0.16376819
170	0xbdaf4e3c	-0.08559844
171	0xbe120645	-0.14260204
172	0x3c26e6bf	0.01018685
173	0xbd9b12b8	-0.0757193
174	0xbe2769a7	-0.16348897
175	0x3d755b29	0.05990139
176	0x3da65517	0.08121698
177	0x3ccfb472	0.025354598
178	0xbd010b78	-0.031505078
179	0xbd3393e9	-0.04384223
180	0x3cccf758	0.025020286
181	0xbdf68f31	-0.1203903
182	0xbd7c65f6	-0.061620675
183	0x3ca47d5f	0.020079313
184	0x3da87c86	0.08226876
185	0x3b87532f	0.0041297893
186	0xbe05823f	-0.13037966
187	0x3d18a2a1	0.03726447
188	0x3c87e2cb	0.016587636
189	0xbd3ee6f8	-0.046606988
190	0x3ddea6c9	0.108716555
191	0x3dca59bb	0.09880396
192	0xbe27cf29	-0.16387619
193	0xbc1f5ec7	-0.0097271865
194	0xbdc51945	-0.096239604
195	0xbddf5e8b	-0.109067045
196	0xbc15cb7a	-0.009142751
197	0xbddc4dbd	-0.10757015
198	0xbd86ab38	-0.06575626
199	0xbd10a428	-0.0353128
200	0xbe3980b9	-0.1811551
201	0xbda10a1e	-0.07863258
202	0xbc9155cc	-0.017741106
203	0x3dc637dd	0.09678624
204	0xbe6ee85b	-0.23330824
205	0x3d393d0f	0.045224246
206	0xbd92a4aa	-0.071603134
207	0x3e1d5582	0.1536465
208	0xbaf79261	-0.0018888229
209	0xbdc1cdd3	-0.09463086
210	0x3cd1ff74	0.025634505
211	0xbd6ca246	-0.057771944
212	0xbcf778ef	-0.030209033
213	0xbdb357fa	-0.087570146
214	0xbe3b655e	-0.18300387
215	0xbdb14183	-0.086550735
216	0xbe2ea4ea	-0.17055097
217	0xbe120a09	-0.1426164
218	0x3ca7b937	0.02047406
219	0x3ca36b20	0.019948542
220	0xbe666e8b	-0.22503106
221	0xbde96193	-0.11395564
222	0xbe167959	-0.14694728
223	0xbdd2df8d	-0.10296545
224	0xbe27fa1e	-0.16404006
225	0xbd370323	-0.044680726
226	0xbe73a38e	-0.2379286
227	0xbc59d687	-0.013295776
228	0x3d76e7e4	0.060279742
229	0xbd0e2665	-0.034704585
230	0xbe04bbe8	-0.12962306
231	0x3de367e8	0.11103803
232	0xbdf9d998	-0.12199706
233	0xbe6692ea	-0.22516981
234	0x3d6f4fa8	0.058425575
235	0xbe09acd9	-0.13444842
236	0xbe33a5ad	-0.17543669
237	0x3d6ecf1e	0.05830299
238	0x3d1016a0	0.035177827
239	0xbcce17d1	-0.02515784
240	0xbe320454	-0.17384464
241	0xbe7c74d1	-0.24653937
242	0x3d4682c3	0.048464548
243	0xbe293cf6	-0.16527161
244	0xbdbf66cf	-0.09345781
245	0xbe3b0f49	-0.1826755
246	0xbd4ab66f	-0.04949039
247	0xbdf7f7f6	-0.12107842
248	0x3de283b5	0.110602774
249	0xbd555958	-0.052087158
250	0xbda4252f	-0.08014905
251	0x3e092470	0.13392806
252	0xbdf37eec	-0.11889443
253	0xbe369c44	-0.17833048
254	0xbc7ca76c	-0.015420776
255	0xbe121cb6	-0.14268765

mlp2.bias f4 [64]
0	0xbed6ce5a	-0.4195431
1	0xbde5919e	-0.11209415
2	0xbe18039a	-0.14845124
3	0xbe430fa5	-0.19048937
4	0xbe27ac32	-0.16374281
5	0xbe28942e	-0.16462776
6	0x3b4bc4e2	0.0031092693
7	0xbccb1c56	-0.024793785
8	0xbd5534f6	-0.05205246
9	0x3d8f170e	0.06986819
10	0x3dbb6268	0.09149629
11	0xbdc386ba	-0.095471814
12	0x3e33af6b	0.17547385
13	0xbde4ae0c	-0.11166009
14	0x3d1786de	0.036993854
15	0xbc923a81	-0.017850162
16	0x3d7d4e89	0.061842475
17	0xbcb5a9e5	-0.022175739
18	0x3cff497d	0.031162972
19	0xbd8841bc	-0.06653163
20	0xbe4d4594	-0.20046073
21	0x3e2e59d2	0.17026451
22	0xbdb46ce5	-0.088098325
23	0xbc866903	-0.016407495
24	0xbdf7dd3b	-0.12102743
25	0xbe0cc4e0	-0.13746977
26	0x3c46c6cd	0.012132359
27	0xbaa1a954	-0.0012333789
28	0x3b0fa314	0.002191727
29	0xbb9a9240	-0.0047171414
30	0x3cf2cfda	0.029640127
31	0xbe15e47e	-0.14637944
32	0x3d144cae	0.03620594
33	0xbdc47a1a	-0.095936015
34	0xbcf398ac	-0.029735886
35	0xbe96bc77	-0.29440662
36	0x3df50e20	0.11965585
37	0xbebdbefe	-0.37059778
38	0x3c3373fb	0.010952945
39	0xbbbe293f	-0.0058032568
40	0xbd9730fc	-0.0738239
41	0x3c93a2b0	0.018021911
42	0xbe1f65ad	-0.1556613
43	0x3e84391e	0.25824827
44	0x3cb4e35a	0.022081066
45	0xbc9f7989	-0.019467132
46	0x3d4f1629	0.050558243
47	0xbe9fa80a	-0.3118289
48	0xbe030d85	-0.12798126
49	0x3b7ec779	0.003887622
50	0xbda5552d	-0.080728866
51	0xbc9b14f6	-0.018930893
52	0xbe7935e2	-0.24336961
53	0xbd7d70af	-0.06187504
54	0x3c380c92	0.011233466
55	0x3d57a979	0.052651856
56	0xbd4ea65a	-0.050451614
57	0xbe3a73b0	-0.18208194
58	0xbe1f78ee	-0.15573475
59	0xbe5c55aa	-0.21517053
60	0xbcd0b8d8	-0.025478765
61	0x3eae1624	0.34001267
62	0xbefcb9c5	-0.4936048
63	0x3e8d3bc5	0.27584663

conv2.nn.weight f4 [64, 64]
0	0xbe6f19bb	-0.23349659
1	0x3c819d2a	0.015822012
2	0x3e36a292	0.17835453
3	0xbf061253	-0.5237171
4	0xbd47a26d	-0.048738886
5	0xbc1d4e6b	-0.009601216
6	0x3e9cd8a1	0.30634025
7	0xbd688de9	-0.05677596
8	0x3d9e71c0	0.0773654
9	0x3e30b3a9	0.17256035
10	0x3e404a10	0.18778253
11	0xbd267895	-0.04064234
12	0x3f21a8c0	0.6314812
13	0xbed72d1a	-0.42026597
14	0xbc89d66a	-0.016825873
15	0xbf363ea0	-0.7118931
16	0x3eaa2761	0.3323317
17	0xbdec3613	-0.11533751
18	0xbd442981	-0.047891144
19	0xbddf75a4	-0.1091111
20	0x3e491173	0.19635563
21	0x3e06f6e5	0.1318012
22	0xbe170427	-0.14747678
23	0x3e2c676f	0.16836332
24	0x3cf3ef18	0.029777095
25	0xbe82a5a6	-0.25517005
26	0x3d438f35	0.047743995
27	0xbc158e64	-0.009128187
28	0xbe7ce42f	-0.2469642
29	0xbe5fcaba	-0.21854678
30	0xbcdfa489	-0.027300136
31	0x3cc9f231	0.024651619
32	0x3e6a583c	0.22885221
33	0x3da311fd	0.07962415
34	0xbd3b72da	-0.045763828
35	0xbdc90963	-0.098162435
36	0x3e5843ea	0.21119657
37	0xbeb7fe48	-0.3593619
38	0xbe235a74	-0.15952474
39	0x3d139f8e	0.036040835
40	0xbd019727	-0.03163829
41	0xbe81560c	-0.2526096
42	0x3db2e526	0.08735113
43	0x3d8d7e70	0.06908882
44	0xbd1b6225	-0.037935395
45	0x3c4236b2	0.011853861
46	0x3eb51022	0.3536387
47	0x3e2d9444	0.1695109
48	0x3dd453c4	0.103675395
49	0xbe6f5e5c	-0.23375839
50	0xbe008cd1	-0.12553717
51	0xbe15bd00	-0.14622879
52	0x3d1a3396	0.037646852
53	0x3e05a0a8	0.13049567
54	0xbd911135	-0.0708336
55	0xbe994846	-0.29937953
56	0x3ee17980	0.4403801
57	0x3ec7f2ef	0.3905253
58	0x3e39a695	0.18129952
59	0x3f1159ec	0.56777835
60	0x3e2f8946	0.1714221
61	0x3e8d666f	0.27617213
62	0x3e810f5c	0.2520703
63	0x3ec7db45	0.39034477
64	0xbde35ad2	-0.11101307
65	0x3d7f5b09	0.062342677
66	0x3da906fc	0.08253285
67	0xbdc48267	-0.09595185
68	0xbe023d7d	-0.12718768
69	0x3cec40b4	0.028839447
70	0xbdfc80f3	-0.123292826
71	0xbdec31d0	-0.115329385
72	0xbdf4359e	-0.11924289
73	0x3d64b1cc	0.055833623
74	0xbe05b26b	-0.13056342
75	0xbdce5c25	-0.10076169
76	0xbdc94ffb	-0.09829708
77	0x3d89558b	0.06705769
78	0x3d317e9f	0.043333646
79	0x3caf361d	0.021388108
80	0xbd963d68	-0.07335931
81	0xbdfbb871	-0.12291039
82	0xbbc12c05	-0.00589514
83	0x3c851d22	0.016249243
84	0x3d96c563	0.07361867
85	0xbdefe13c	-0.11712882
86	0xbe003cb8	-0.12523162
87	0x3cfbda03	0.030743605
88	0xbc8d6fa1	-0.017265143
89	0x3da9f51a	0.082987025
90	0xbd9be196	-0.076113865
91	0x3dff438e	0.12464057
92	0x3d481830	0.048851192
93	0xbd832b5c	-0.064047545
94	0xbd775948	-0.06038788
95	0xb9eb6dcf	-0.00044904507
96	0xbd4ff638	-0.050771922
97	0xbdcceacd	-0.10005722
98	0xbdc526e2	-0.09626557
99	0xba5738ac	-0.0008210044
100	0x3c8ce00d	0.01719668
101	0x3d8d4aae	0.0689901
102	0xbdc358b9	-0.09538407
103	0xbd972288	-0.07379633
104	0xbdb45633	-0.08805504
105	0xbdb37a77	-0.08763593
106	0x3dfce156	0.12347667
107	0xbde3462a	-0.11097367
108	0xbdcb7e55	-0.09936205
109	0x3d1fd7f7	0.03902432
110	0x3d6406d9	0.055670593
111	0xbdea4a0e	-0.11439906
112	0xbd80d888	-0.062913
113	0x3d19da40	0.037561655
114	0x3a55aab3	0.00081507413
115	0xbdfc811c	-0.12329313
116	0xbe1b71fc	-0.151802
117	0xbe000860	-0.12503195
118	0xbc328d9b	-0.010898019
119	0xbd6e5ea0	-0.05819571
120	0xbe1c22a1	-0.15247585
121	0x3dfc63f6	0.123237535
122	0x3be975aa	0.0071246224
123	0xbdb12b8f	-0.08650886
124	0xbca16a10	-0.019703895
125	0xbd35f370	-0.044421613
126	0xbdad9aa6	-0.084767625
127	0xbdec85e8	-0.11548978
128	0x3d137201	0.035997394
129	0xbe16797e	-0.14694783
130	0xbdd69d26	-0.104791924
131	0x3d1c900d	0.038223315
132	0xbdd50a64	-0.104023725
133	0xbd650332	-0.05591125
134	0xbd479d70	-0.04873413
135	0xbe0b3646	-0.13594922
136	0xbe102814	-0.14077789
137	0xbe029818	-0.12753332
138	0xbdee6b5f	-0.11641573
139	0xbd639a19	-0.05556688
140	0x3da89894	0.08232227
141	0x3a936a71	0.0011246932
142	0x3d9e2aaf	0.07722985
143	0xbdd424a3	-0.103585504
144	0xbd64a12a	-0.05581776
145	0x3d90244a	0.070381716
146	0x3c24aec5	0.010051434
147	0xbdbc6cc1	-0.09200431
148	0x3da8acb4	0.082360655
149	0xbdc12cf6	-0.09432404
150	0x3dc780c3	0.09741356
151	0xbe0034b6	-0.12520108
152	0x3d1ad304	0.037798896
153	0xbdbd5f28	-0.09246665
154	0xbe115253	-0.1419156
155	0x3d567349	0.05235604
156	0xbe141b5b	-0.1446356
157	0xbd664850	-0.056221306
158	0xbd1c5030	-0.03816241
159	0xbd74c0bd	-0.059754122
160	0xbd0da263	-0.034578692
161	0x3d28c560	0.041203856
162	0xbd8a6ef9	-0.067594476
163	0x3da44f90	0.08022988
164	0x3d1018f6	0.035180055
165	0xbdc67202	-0.09689714
166	0x3bb0923c	0.0053885262
167	0xbd2c3be0	-0.04204929
168	0xbe08b7d4	-0.13351375
169	0xbe27b2d9	-0.16376819
170	0xbdaf4e3c	-0.08559844
171	0xbe120645	-0.14260204
172	0x3c26e6bf	0.01018685
173	0xbd9b12b8	-0.0757193
174	0xbe2769a7	-0.16348897
175	0x3d755b29	0.05990139
176	0x3da65517	0.08121698
177	0x3ccfb472	0.025354598
178	0xbd010b78	-0.031505078
179	0xbd3393e9	-0.04384223
180	0x3cccf758	0.025020286
181	0xbdf68f31	-0.1203903
182	0xbd7c65f6	-0.061620675
183	0x3ca47d5f	0.020079313
184	0x3da87c86	0.08226876
185	0x3b87532f	0.0041297893
186	0xbe05823f	-0.13037966
187	0x3d18a2a1	0.03726447
188	0x3c87e2cb	0.016587636
189	0xbd3ee6f8	-0.046606988
190	0x3ddea6c9	0.108716555
191	0x3dca59bb	0.09880396
192	0xbe27cf29	-0.16387619
193	0xbc1f5ec7	-0.0097271865
194	0xbdc51945	-0.096239604
195	0xbddf5e8b	-0.109067045
196	0xbc15cb7a	-0.009142751
197	0xbddc4dbd	-0.10757015
198	0xbd86ab38	-0.06575626
199	0xbd10a428	-0.0353128
200	0xbe3980b9	-0.1811551
201	0xbda10a1e	-0.07863258
202	0xbc9155cc	-0.017741106
203	0x3dc637dd	0.09678624
204	0xbe6ee85b	-0.23330824
205	0x3d393d0f	0.045224246
206	0xbd92a4aa	-0.071603134
207	0x3e1d5582	0.1536465
208	0xbaf79261	-0.0018888229
209	0xbdc1cdd3	-0.09463086
210	0x3cd1ff74	0.025634505
211	0xbd6ca246	-0.057771944
212	0xbcf778ef	-0.030209033
213	0xbdb357fa	-0.087570146
214	0xbe3b655e	-0.18300387
215	0xbdb14183	-0.086550735
216	0xbe2ea4ea	-0.17055097
217	0xbe120a09	-0.1426164
218	0x3ca7b937	0.02047406
219	0x3ca36b20	0.019948542
220	0xbe666e8b	-0.22503106
221	0xbde96193	-0.11395564
222	0xbe167959	-0.14694728
223	0xbdd2df8d	-0.10296545
224	0xbe27fa1e	-0.16404006
225	0xbd370323	-0.044680726
226	0xbe73a38e	-0.2379286
227	0xbc59d687	-0.013295776
228	0x3d76e7e4	0.060279742
229	0xbd0e2665	-0.034704585
230	0xbe04bbe8	-0.12962306
231	0x3de367e8	0.11103803
232	0xbdf9d998	-0.12199706
233	0xbe6692ea	-0.22516981
234	0x3d6f4fa8	0.058425575
235	0xbe09acd9	-0.13444842
236	0xbe33a5ad	-0.17543669
237	0x3d6ecf1e	0.05830299
238	0x3d1016a0	0.035177827
239	0xbcce17d1	-0.02515784
240	0xbe320454	-0.17384464
241	0xbe7c74d1	-0.24653937
242	0x3d4682c3	0.048464548
243	0xbe293cf6	-0.16527161
244	0xbdbf66cf	-0.09345781
245	0xbe3b0f49	-0.1826755
246	0xbd4ab66f	-0.04949039
247	0xbdf7f7f6	-0.12107842
248	0x3de283b5	0.110602774
249	0xbd555958	-0.052087158
250	0xbda4252f	-0.08014905
251	0x3e092470	0.13392806
252	0xbdf37eec	-0.11889443
253	0xbe369c44	-0.17833048
254	0xbc7ca76c	-0.015420776
255	0xbe121cb6	-0.14268765

conv2.nn.bias f4 [64]
0	0xbed6ce5a	-0.4195431
1	0xbde5919e	-0.11209415
2	0xbe18039a	-0.14845124
3	0xbe430fa5	-0.19048937
4	0xbe27ac32	-0.16374281
5	0xbe28942e	-0.16462776
6	0x3b4bc4e2	0.0031092693
7	0xbccb1c56	-0.024793785
8	0xbd5534f6	-0.05205246
9	0x3d8f170e	0.06986819
10	0x3dbb6268	0.09149629
11	0xbdc386ba	-0.095471814
12	0x3e33af6b	0.17547385
13	0xbde4ae0c	-0.11166009
14	0x3d1786de	0.036993854
15	0xbc923a81	-0.017850162
16	0x3d7d4e89	0.061842475
17	0xbcb5a9e5	-0.022175739
18	0x3cff497d	0.031162972
19	0xbd8841bc	-0.06653163
20	0xbe4d4594	-0.20046073
21	0x3e2e59d2	0.17026451
22	0xbdb46ce5	-0.088098325
23	0xbc866903	-0.016407495
24	0xbdf7dd3b	-0.12102743
25	0xbe0cc4e0	-0.13746977
26	0x3c46c6cd	0.012132359
27	0xbaa1a954	-0.0012333789
28	0x3b0fa314	0.002191727
29	0xbb9a9240	-0.0047171414
30	0x3cf2cfda	0.029640127
31	0xbe15e47e	-0.14637944
32	0x3d144cae	0.03620594
33	0xbdc47a1a	-0.095936015
34	0xbcf398ac	-0.029735886
35	0xbe96bc77	-0.29440662
36	0x3df50e20	0.11965585
37	0xbebdbefe	-0.37059778
38	0x3c3373fb	0.010952945
39	0xbbbe293f	-0.0058032568
40	0xbd9730fc	-0.0738239
41	0x3c93a2b0	0.018021911
42	0xbe1f65ad	-0.1556613
43	0x3e84391e	0.25824827
44	0x3cb4e35a	0.022081066
45	0xbc9f7989	-0.019467132
46	0x3d4f1629	0.050558243
47	0xbe9fa80a	-0.3118289
48	0xbe030d85	-0.12798126
49	0x3b7ec779	0.003887622
50	0xbda5552d	-0.080728866
51	0xbc9b14f6	-0.018930893
52	0xbe7935e2	-0.24336961
53	0xbd7d70af	-0.06187504
54	0x3c380c92	0.011233466
55	0x3d57a979	0.052651856
56	0xbd4ea65a	-0.050451614
57	0xbe3a73b0	-0.18208194
58	0xbe1f78ee	-0.15573475
59	0xbe5c55aa	-0.21517053
60	0xbcd0b8d8	-0.025478765
61	0x3eae1624	0.34001267
62	0xbefcb9c5	-0.4936048
63	0x3e8d3bc5	0.27584663

conv2.lin.weight f4 [64, 3]
0	0x3ed465e1	0.41483977
1	0x3e7f54b6	0.24934658
2	0x3e20106d	0.15631266
3	0x3cfd2110	0.030899554
4	0x3d99de4e	0.075131044
5	0x3dcff849	0.101547785
6	0xbeb47d79	-0.35251978
7	0xbedefc88	-0.4355204
8	0x3f29e19e	0.6635989
9	0xbda9e81a	-0.08296223
10	0x3d09ed06	0.03367331
11	0xbf34014a	-0.70314467
12	0x3e58ee6a	0.21184698
13	0xbdc98783	-0.098403
14	0x3ea4b2a7	0.3216755
15	0x3e55af06	0.20867547
16	0xbd043137	-0.032273497
17	0xbd3a93d5	-0.04555114
18	0x3e10b56a	0.14131704
19	0x3e243399	0.16035308
20	0x3f1ba701	0.608017
21	0x3ed4df31	0.41576532
22	0x3d9a0f18	0.0752241
23	0xbd6d8480	-0.05798769
24	0xbdcbaf7a	-0.09945579
25	0x3ebacc22	0.36483866
26	0xbe10bcff	-0.14134596
27	0xbeccabcd	-0.39974824
28	0x3e72a1ac	0.23694485
29	0xbf114309	-0.5674291
30	0xbdfad4a8	-0.12247592
31	0xbf1fb290	-0.6238184
32	0x3e042dfd	0.12908168
33	0x3e4a1a3f	0.19736575
34	0x3f306eaf	0.6891889
35	0xbe3085ee	-0.1723859
36	0xbe85ab67	-0.26107332
37	0x3e8cfb60	0.27535534
38	0x3e3fc18f	0.1872618
39	0xbe25b39c	-0.16181797
40	0xbe160c69	-0.14653172
41	0xbec25ffb	-0.37963852
42	0x3d990cf8	0.07473177
43	0xbcc50205	-0.024048815
44	0xbd540e75	-0.0517716
45	0x3ef31855	0.474795
46	0xbea39cde	-0.31955618
47	0x3e660d79	0.22466077
48	0xbefeb9f7	-0.49751255
49	0x3f3d7d60	0.7401943
50	0x3ea90355	0.33010355
51	0xbd0a26b7	-0.033728328
52	0xbf3ff46d	-0.7498234
53	0xbeed3fa8	-0.46337628
54	0xbef6f51c	-0.4823388
55	0xbef781d3	-0.48341236
56	0x3f197804	0.59948754
57	0x3d02554a	0.03181962
58	0x3e143164	0.14471966
59	0x3ec3d90b	0.38251528
60	0x3eb6e641	0.35722545
61	0x3e688709	0.22707762
62	0xbe8c7570	-0.27433348
63	0xbf05ba9b	-0.5223786
64	0xbec4b750	-0.38421106
65	0xbeae9a0d	-0.34101906
66	0x3e8acda8	0.27110028
67	0x3e976748	0.29570985
68	0x3f2f2d76	0.6842874
69	0xbef42fed	-0.47692814
70	0xbead112b	-0.3380216
71	0x3e912991	0.28352025
72	0xbe979d68	-0.2961228
73	0xbf073bd3	-0.5282566
74	0x3ea05606	0.3131563
75	0xbe9bbdfa	-0.30418378
76	0x3e9f13d2	0.3106981
77	0x3e009cb4	0.12559777
78	0xbe93e02a	-0.2888196
79	0x3e6ccd93	0.23125295
80	0xbf090da4	-0.5353644
81	0x3e18f81e	0.14938399
82	0x3d1b1e35	0.037870605
83	0xbee35da4	-0.4440738
84	0x3e5c8428	0.21534789
85	0x3e3b7e86	0.18309984
86	0xbeea32a9	-0.45741776
87	0x3ec8e409	0.39236477
88	0xbdeb2560	-0.11481738
89	0x3e980ed3	0.2969881
90	0xbcc1bf89	-0.023650901
91	0xbeabb9a0	-0.33540058
92	0x3edede9c	0.43529212
93	0xbeb3da6f	-0.3512759
94	0xbdbc3da4	-0.091914445
95	0xbd899aa2	-0.06718947
96	0xbf512ad9	-0.81706005
97	0x3ef1f1ca	0.47254783
98	0xbeabb5c7	-0.33537123
99	0xbd4ea4f1	-0.05045027
100	0x3d8c7dd8	0.0685994
101	0x3e8ebe32	0.27879483
102	0xbd1ee923	-0.038796555
103	0x3e923670	0.28557158
104	0xbef94103	-0.48682413
105	0xbe5119f5	-0.20420058
106	0xbe1abed5	-0.15111859
107	0x3e7e0788	0.2480756
108	0x3d4d4fdd	0.05012499
109	0xbd2aeebf	-0.041731592
110	0xbf212e65	-0.6296142
111	0xbf2ec792	-0.6827327
112	0x3d1236ba	0.035696723
113	0x3f1c0517	0.60945266
114	0xbcd1cc71	-0.02561018
115	0xbe9e1ab5	-0.3087975
116	0x3dee8862	0.11647107
117	0x3ed98800	0.42486572
118	0x3d7ea841	0.06217218
119	0xbeba46de	-0.36382192
120	0xbe56fcfb	-0.20994942
121	0x3d1ee906	0.038796447
122	0xbdf3d8a5	-0.11906556
123	0x3e5d3906	0.21603784
124	0xbe85d965	-0.2614242
125	0xbf3a4f17	-0.7277693
126	0xbe309588	-0.17244542
127	0xbeb776d2	-0.3583284
128	0xbec33d1a	-0.38132554
129	0x3e129add	0.14316888
130	0x3e15b908	0.14621365
131	0x3ea26010	0.31713915
132	0xbf20f921	-0.6288014
133	0xbda44263	-0.08020475
134	0xbdda3016	-0.10653703
135	0x3cdb9dd6	0.02680866
136	0xbefb3ee0	-0.49071407
137	0xbea32de0	-0.31870937
138	0x3ed5d870	0.4176669
139	0x3ea45cf5	0.3210217
140	0xbd9b4b9f	-0.07582783
141	0xbdcb56de	-0.09928678
142	0x3a887ae0	0.0010412596
143	0xbd6a6ca3	-0.05723251
144	0xbe7d3633	-0.24727707
145	0xbe18940a	-0.14900222
146	0x3e276896	0.1634849
147	0x3e91fc02	0.2851258
148	0xbf82ca00	-1.0217896
149	0xbdb03d75	-0.08605472
150	0x3d7dbcfd	0.06194781
151	0x3e2d4fff	0.16925047
152	0x3f10d69f	0.56577486
153	0x3debd535	0.115152754
154	0x3dac2d86	0.084071204
155	0xbe9aa18f	-0.30201384
156	0x3e6aec19	0.22941627
157	0x3e535894	0.20639259
158	0x3e839490	0.25699282
159	0xbed395da	-0.41325265
160	0xbe5cdb9d	-0.21568151
161	0xbef92e54	-0.48668158
162	0x3e6a4643	0.22878365
163	0x3df3b5a7	0.11899882
164	0xbe3aa524	-0.18227059
165	0xbdccbefc	-0.09997365
166	0xbf3c097d	-0.7345198
167	0xbcb0f856	-0.02160279
168	0xbe8fd047	-0.2808859
169	0x3e0e861e	0.13918349
170	0x3e374051	0.17895629
171	0xbf10716c	-0.5642307
172	0x3f068963	0.52553385
173	0x3ec92a7f	0.39290234
174	0xbe384ec8	-0.17998803
175	0x3e02de56	0.12780127
176	0x3e865112	0.26233727
177	0xbf6753a8	-0.90362024
178	0x3eb8865a	0.36040002
179	0x3ef75769	0.48308876
180	0xbf58850b	-0.8457801
181	0x3e122b12	0.14274243
182	0x3e906b24	0.28206742
183	0x3ec50fdd	0.38488665
184	0xbe25155b	-0.16121428
185	0x3dff1a70	0.124562144
186	0xbf5b39f4	-0.85635304
187	0xbcce1958	-0.02515857
188	0x3ee31464	0.44351494
189	0x3e0eace5	0.13933142
190	0x3f081444	0.5315592
191	0x3ef9ab5f	0.48763558

conv2.lin.bias f4 [64]
0	0xbed83c9d	-0.42233744
1	0x3da13271	0.07870949
2	0xbd50cdf3	-0.05097766
3	0xbe11948c	-0.14216822
4	0xbda34f53	-0.07974114
5	0xbebc7cb4	-0.3681389
6	0xbda9a2ef	-0.0828303
7	0xbedb1b69	-0.4279435
8	0x3cbe17c1	0.023204686
9	0xbe8e9d04	-0.27854168
10	0xbd9ffc67	-0.07811814
11	0xbeadc88c	-0.33942068
12	0xbecbd949	-0.39814213
13	0x3e0ce8f6	0.13760743
14	0x3ada372b	0.0016648521
15	0xbf082f9c	-0.53197646
16	0x3ee68b5f	0.45028207
17	0xbd9f73a8	-0.077857316
18	0xbe747bf4	-0.2387541
19	0xbe8373d0	-0.25674295
20	0xbe6a0100	-0.22851944
21	0xbf488fb4	-0.78344274
22	0xbed59f5e	-0.4172315
23	0xbdceb2d3	-0.10092702
24	0xbda23e04	-0.07921985
25	0xbed38942	-0.41315657
26	0x3e221829	0.15829529
27	0xbe3500ef	-0.17676137
28	0xbe7ff3c3	-0.24995331
29	0x3db6ae8e	0.089200124
30	0xbf0fd12a	-0.56178534
31	0x3e55c4b2	0.20875815
32	0x3e1300de	0.143558
33	0xbe5dfd8b	-0.2167875
34	0xbf1dae96	-0.6159452
35	0xbdc3a191	-0.09552301
36	0xbe4a69eb	-0.19766967
37	0xbe319248	-0.17340958
38	0xbe5be50a	-0.2147409
39	0xbf13a06d	-0.57666665
40	0xbf359887	-0.70935863
41	0xbea56ef8	-0.32311225
42	0xbe50493c	-0.20340437
43	0x3d50d7ca	0.050987042
44	0x3d6992c8	0.057024747
45	0xbe3ca323	-0.18421607
46	0xbebef771	-0.37298158
47	0xbdc3ea45	-0.09566168
48	0x3e16104b	0.14654653
49	0xbe82e7b8	-0.25567412
50	0xbe3dcfcd	-0.18536301
51	0xbebb2628	-0.36552548
52	0xbe9a7a5c	-0.30171478
53	0x3de2cff2	0.11074819
54	0x3c9c407e	0.019073721
55	0xbda9f86f	-0.08299338
56	0x3e82c7ca	0.25543052
57	0xbf073674	-0.52817464
58	0x3d67c828	0.05658737
59	0xbf01d708	-0.50718737
60	0xbe8d3f95	-0.27587572
61	0xbf0035a9	-0.5008188
62	0x3cebc35b	0.028779676
63	0xbeaf33cb	-0.34219202

mlp3.weight f4 [64, 64]
0	0xbe14faf2	-0.14548853
1	0x3d610ea8	0.054945618
2	0xbd815c9e	-0.063164935
3	0x3dd63183	0.10458662
4	0x3fa7b03d	1.3100659
5	0x3e7271b3	0.23676185
6	0x3d52d8da	0.051476337
7	0x3c524a26	0.012835061
8	0xbe4384d4	-0.19093639
9	0xbc3a86b9	-0.011384659
10	0xbdac28ea	-0.08406241
11	0xbdea11f0	-0.114292026
12	0xbdd9b2f0	-0.10629833
13	0xbc33a4cb	-0.010964583
14	0xbb83338e	-0.0040039485
15	0xbd19eee7	-0.03758135
16	0xbd3d3b73	-0.046199273
17	0x3b130a49	0.002243655
18	0xbf174de7	-0.59103245
19	0xbd51b6c8	-0.051199704
20	0x3e370798	0.1787399
21	0xbe1697a2	-0.14706281
22	0x3d6dc33e	0.058047526
23	0xbb2b1b27	-0.0026108713
24	0xbd953dc1	-0.07287169
25	0xbd7c8a74	-0.061655477
26	0xbbed2104	-0.007236602
27	0xbdc46587	-0.09589677
28	0x3ddc0201	0.1074257
29	0xbe375967	-0.17905198
30	0x3d1a2d1d	0.03764068
31	0xbdde6152	-0.10858406
32	0x3dc59a29	0.09648544
33	0xbe9c27d4	-0.30499136
34	0x3d3ece12	0.046583243
35	0xbdff5df9	-0.12469096
36	0xbdf29ab0	-0.118459105
37	0x3f4033c8	0.7507901
38	0xbe2f53e2	-0.17121843
39	0xbe26bf33	-0.16283874
40	0x3d7b55ed	0.061361242
41	0x3d9a9467	0.07547837
42	0xbde88017	-0.11352556
43	0xbf58ea04	-0.8473208
44	0xbde67977	-0.11253636
45	0x3cf2f629	0.029658394
46	0x3ddb2ad6	0.1070153
47	0xbe2b3b9c	-0.16721958
48	0xbe0fa652	-0.1402829
49	0x3c70c4f0	0.014695391
50	0xbd6d68c8	-0.057961255
51	0x3b66d07c	0.0035219481
52	0xbd2aea9a	-0.04172764
53	0x3d3a1b2f	0.04543608
54	0xbddf7b0b	-0.109121405
55	0xbe0008f0	-0.1250341
56	0xbe0c7b58	-0.13718927
57	0x3d8cdac0	0.06877661
58	0xbd9acbd9	-0.07558412
59	0xbdcb3aee	-0.09923349
60	0xbe765580	-0.24056053
61	0xbe70e51c	-0.23524898
62	0x3f2d0917	0.67591995
63	0x3aa831b5	0.0012832197
64	0xbe9d2ea7	-0.30699655
65	0xbd903c9c	-0.0704281
66	0x3ddcac94	0.10775104
67	0x3bab24bc	0.005222885
68	0x3f4cde75	0.8002694
69	0x3de3dccf	0.111261
70	0x3cb58af3	0.022160983
71	0xbe1e9b0f	-0.15488838
72	0xbf9256f3	-1.1432785
73	0x3db37501	0.08762551
74	0xbe67709f	-0.22601555
75	0xbe458550	-0.19289136
76	0xbe4fad82	-0.20281032
77	0xbda0f2d3	-0.07858815
78	0xbdcaa8e8	-0.098954976
79	0xbe33fc9b	-0.1757683
80	0xbe8f22bc	-0.27956188
81	0xbd65789a	-0.056023218
82	0xbf51fbdc	-0.8202493
83	0x3d1e0bbb	0.038585406
84	0xbd95e59c	-0.07319185
85	0xbec621fd	-0.38697806
86	0x3d9b3ca7	0.07579928
87	0xbe99e697	-0.3005874
88	0xbe469b1f	-0.19395112
89	0xbdd4826b	-0.10376438
90	0xbeb9701a	-0.3621834
91	0xbc291919	-0.010320925
92	0xbc49174a	-0.012273619
93	0xbe58f9f2	-0.21189097
94	0x3dc2a8f8	0.095048845
95	0x3d3c4f46	0.04597404
96	0x3cc1f61a	0.02367692
97	0xbf1d7480	-0.6150589
98	0x3d12f197	0.03587493
99	0xbe92deab	-0.28685507
100	0x3cdd6acb	0.027028462
101	0x3f9a7a00	1.2068481
102	0xbe7bb2cc	-0.24579924
103	0x3e300ab0	0.17191577
104	0xbe0a7bd9	-0.13523807
105	0x3ea6215d	0.3244733
106	0xbea9028a	-0.3300975
107	0xbeac5f91	-0.3366666
108	0xbe7693da	-0.24079838
109	0x3d278833	0.040901374
110	0xbec50079	-0.38476923
111	0xbf130dbd	-0.5744284
112	0x3c93cced	0.018042052
113	0xbf13109a	-0.57447207
114	0xbdf13483	-0.11777594
115	0xbe60d2d9	-0.21955432
116	0x3e3722f7	0.17884432
117	0x3dd2d5f6	0.10294716
118	0xbdb82e5d	-0.08993218
119	0xbec401fa	-0.38282758
120	0xbeb3052c	-0.34964883
121	0x3c5252f0	0.012837157
122	0xbe21c507	-0.15797816
123	0x3e4f6bcc	0.20255965
124	0xbef2cc67	-0.47421572
125	0xbbf8bd9c	-0.0075909626
126	0x3f690d8f	0.91036314
127	0xbee12340	-0.43972206
128	0xbdb516af	-0.08842217
129	0x3dce6c48	0.10079247
130	0xbd1fff48	-0.039061815
131	0x3d504782	0.050849445
132	0xba1226d8	-0.0005575246
133	0xbd588776	-0.05286356
134	0xbc72b804	-0.014814381
135	0xbd9ad163	-0.075594686
136	0x3a8cbb9c	0.0010737064
137	0xbbb3fbb8	-0.0054926537
138	0xbe20bb7b	-0.15696518
139	0xbdc56a15	-0.09639374
140	0x3cef41a7	0.02920611
141	0xbc67e3d0	-0.014153436
142	0xbdd6fee1	-0.10497833
143	0xbe0e0568	-0.1386925
144	0xbde655b9	-0.11246819
145	0xbe08f5d6	-0.13375029
146	0xbdd2b76d	-0.10288892
147	0x3dc24e4c	0.0948759
148	0x3ddb2262	0.106999174
149	0x3d83d750	0.06437552
150	0xbd021474	-0.031757787
151	0xbe174a13	-0.14774351
152	0x3c77f7c7	0.015134758
153	0xbdad994f	-0.08476507
154	0xbdfe6f50	-0.12423575
155	0x3cff4e78	0.031165347
156	0xbd656987	-0.05600884
157	0x3da5bfc8	0.0809322
158	0x3ce1bc10	0.027555496
159	0x3d52ef5c	0.051497802
160	0xb9901fbc	-0.00027489464
161	0x3cc83a39	0.024441825
162	0xbe539771	-0.20663239
163	0xbc21a3d0	-0.009865716
164	0x3b21ef81	0.0024709406
165	0xbdeb0a39	-0.11476559
166	0x3d87a606	0.06623463
167	0xbdc27aae	-0.094960555
168	0xbcd42d82	-0.025900606
169	0x3cdf348b	0.027246734
170	0xbdaf0b57	-0.08547085
171	0xbcc6c139	-0.024262058
172	0x3c0634bd	0.008191285
173	0xbcfa2aa2	-0.030537907
174	0xbdec4483	-0.11536505
175	0xbd5314de	-0.051533572
176	0xba79bbaf	-0.0009526563
177	0xbdf83d15	-0.121210255
178	0xbdc9c606	-0.09852223
179	0xbd6af626	-0.05736365
180	0x3b77c22b	0.0037804942
181	0xbd81db34	-0.06340638
182	0x3de08bdf	0.10964178
183	0x3d01c5fc	0.031682953
184	0x3dbd476e	0.0924214
185	0x3c9e20d8	0.01930277
186	0x3bc98d96	0.0061509116
187	0xbd72a11c	-0.059235677
188	0xbdbe5fe1	-0.09295631
189	0xbdcdb6de	-0.10044645
190	0xbdf87412	-0.12131514
191	0xbe5cbad4	-0.21555644
192	0xbc0d3d2f	-0.008620544
193	0x3da49334	0.08035889
194	0x3d4b7938	0.04967615
195	0x3dc3bf00	0.09557915
196	0xbd34a852	-0.044105835
197	0xbc25ffa9	-0.010131755
198	0xbbc6e496	-0.00606973
199	0x3d1bff27	0.03808513
200	0x3da3cf92	0.07998575
201	0xbe09d3e9	-0.13459744
202	0xbd90c882	-0.07069494
203	0xbd5c677b	-0.053809624
204	0xbd9638ee	-0.07335077
205	0x3da09426	0.07840757
206	0xbe19065c	-0.14943832
207	0xbdebd44f	-0.11515104
208	0xbda6f690	-0.08152497
209	0x3cb8b1b8	0.02254568
210	0xbe089fb6	-0.13342175
211	0x3c6cb700	0.0144479275
212	0xbc82d428	-0.015970305
213	0xbb507706	-0.0031809225
214	0xbb0ad080	-0.0021181405
215	0xbcec699f	-0.028858958
216	0x3d81fc34	0.06346932
217	0xbb3aa8ad	-0.0028481886
218	0x3ce9516f	0.028481213
219	0xbdb4d882	-0.08830358
220	0xbd5a6037	-0.053314414
221	0xbdbfc17f	-0.09363078
222	0xbdb3c1f8	-0.08777231
223	0xbd9734d2	-0.073831216
224	0xbd8cf3d0	-0.06882441
225	0x3d24c59c	0.040227517
226	0xbda7f842	-0.08201648
227	0xbdc5e4be	-0.0966277
228	0xbde763af	-0.1129831
229	0x39d2282a	0.00040084246
230	0xbcd2acab	-0.0257171
231	0xbe0fe246	-0.1405116
232	0xb9aa17a2	-0.00032442535
233	0x3d1ab0d7	0.037766304
234	0x3d9a1d50	0.07525122
235	0xbd3d7e31	-0.046262924
236	0x3d74be8d	0.059752036
237	0xbda8361c	-0.082134455
238	0x3da74f85	0.08169464
239	0xbe0b7184	-0.13617522
240	0xbd6f749e	-0.058460824
241	0xbe1025b0	-0.14076877
242	0xbdae8fe4	-0.08523539
243	0x3bed925c	0.0072501134
244	0x3cf66b72	0.03008053
245	0x3da4507c	0.08023164
246	0x3dd77420	0.10520196
247	0xbd972bb3	-0.07381382
248	0xbdf3f9aa	-0.11912854
249	0x3cc5e6e0	0.024157941
250	0xbdffd68c	-0.124920934
251	0xbdabd964	-0.08391073
252	0xbd8c4512	-0.068491116
253	0xbdf2a344	-0.11847547
254	0xbd26cfef	-0.040725645
255	0xbd12446a	-0.035709776

mlp3.bias f4 [64]
0	0xbe737711	-0.23775889
1	0xbeed55c9	-0.4635451
2	0xbddfdb04	-0.10930446
3	0xbd8289c8	-0.06373936
4	0x3eaadc7e	0.33371347
5	0xbea4cf0b	-0.3218921
6	0xbe481df4	-0.19542676
7	0xbc6db5da	-0.014508689
8	0x3d1aeae4	0.037821665
9	0xbd8636fa	-0.06553455
10	0xbefeeed9	-0.497916
11	0xbd86d599	-0.06583709
12	0xbe476f0d	-0.19475956
13	0x3df1a239	0.1179852
14	0x3dae635d	0.08515046
15	0xbe5e95ee	-0.21736881
16	0x3d792c74	0.06083341
17	0xbd6a84bc	-0.05725549
18	0xbee683b4	-0.45022357
19	0x3e0234da	0.12715474
20	0xbe620ab2	-0.22074392
21	0xbe7951b1	-0.24347569
22	0xbea090d4	-0.31360495
23	0xbd810f9d	-0.06301806
24	0x3d857532	0.06516494
25	0x3de870bf	0.113496296
26	0x3e24b990	0.16086411
27	0xbd86faa3	-0.06590774
28	0xbe03cbed	-0.1287076
29	0xbda10db1	-0.078639396
30	0x3b2639a0	0.0025363937
31	0xbdb061fc	-0.08612439
32	0x3e1e6d4a	0.15471378
33	0x3e9eb407	0.30996725
34	0x3d839b7f	0.06426143
35	0xbd9d757a	-0.076884225
36	0x3e8a7786	0.27044314
37	0x3e5ccead	0.21563216
38	0x3cde15ed	0.027110064
39	0xbe6d56cd	-0.23177643
40	0xbe112789	-0.14175238
41	0x3c67d385	0.014149551
42	0xbe86743b	-0.26260552
43	0xbe020f5a	-0.12701169
44	0x3e206dee	0.15666935
45	0xbe90ab29	-0.28255585
46	0xbcafd13e	-0.02146208
47	0xbde59127	-0.11209326
48	0xbeb60dd4	-0.35557425
49	0x3ef89afc	0.48555744
50	0xbddb79b9	-0.10716576
51	0xbe5bc1ee	-0.21460697
52	0x3cac5e85	0.021041164
53	0xbdfd0ab2	-0.123555556
54	0x3e1fa333	0.155896
55	0x3dead85a	0.11467047
56	0xbd5cc357	-0.053897228
57	0x3cad1019	0.02112584
58	0x3d6a5805	0.05721285
59	0xbe98b676	-0.29826707
60	0xbd18455a	-0.037175514
61	0xbe92a210	-0.2863927
62	0x3e855333	0.26040038
63	0x3ef3c5ea	0.47611934
