final_models/mutag_explainer.pt (torch, 45967 bytes, 19 tensors)

mlp1.weight f4 [64, 14]
00000000: 09b2 73be ff3c 98be cb0f 9d3d aeae 3b3e
00000010: b064 35be 5d8d 123e bc8b 4ebe de61 9abe
00000020: 7105 76be 4e87 c1bd e8d9 33be 3da2 033e
00000030: 70c6 30be e02b cabc 95ea 6fbf dc25 3a3f
00000040: bdf8 d4be e209 cc3e c24a 5a3e 03ec 50bf
00000050: 2591 48bf 4c43 053f 70a5 233e ad38 20bf
00000060: 0244 75be 345c f23d 6388 e5be ea99 63be
00000070: fc3a 81be 94cd e4bc 6f29 1fbe fdd9 a7be
00000080: 0c82 c53c 9f00 69be 9c08 c5bd 5dd0 533d
00000090: 4b66 ac3d 44d8 0d3f 60f4 16bd 7e2d f23c
000000a0: a968 19be 089e afbc 270d 2b3d da54 41bd
000000b0: 3108 3a3e eee3 e13e 68d0 f93e 38ae e7bd
000000c0: 72bc e63e 2dbc af3d 2d93 fc3e 3f3a 2a3f
000000d0: da65 113e b54e 4abe ed77 c1be a2f3 7a3e
000000e0: d29c 9dbe 5cae 6bbd 6cc5 093f 6544 033e
000000f0: e813 ea3e 663f 49be 81be adbe 696f 5e3f
00000100: 4fef e9be b2e0 c53f 69bb acbb f34e 363d
00000110: 0396 a2be c3ab 873e 4869 35be f324 6bbe
00000120: 1bfa 93bd caaa cabc 4b15 5c3c b44e 08be
00000130: 9c05 74be e8eb 93bd c565 babd 7480 e9bd
00000140: 00e7 25be 134c 2cbe d4af 80bc 0270 4dbe
00000150: 81d3 9fbd 0b44 88be 1051 eebd fb61 31be
00000160: 9dbb 63be b331 70be d35e 77be 706c c5bd
00000170: 7b15 8abe c736 9fbc ea41 063e 6feb 4abe
00000180: b486 94be d8d7 b63d d5a7 91be 1064 6a3d
00000190: 2b20 5abe 8c73 1ebd 094b 73be ca94 843d
000001a0: d4ff 3a3e 217b 1abe b022 80be 0ec4 7e3e
000001b0: e5b4 833e 0c6c 663e 0471 4bbe 47a6 75be
000001c0: 42de 86bd a737 a9be 4ed6 1d3b 7cbf 9ebe
000001d0: 6364 8b3d 42d6 60be c58d 8b3d 3623 ccbe
000001e0: e68b 45bd 3c85 a13e d471 a8bd 4dea f1bd
000001f0: e664 9cbe 385b 233e 04a0 8fbe b365 bf3b
00000200: 72d5 d3bb a1e8 bbbc b616 4f3d b46c c0bd
00000210: bf3d e5bd e6cb 81bd c02e 74be 20dd 97be
00000220: d37c 67be 25a9 b7bd 8aab 15be 5c0d 0ebe
00000230: 54d5 52be 5894 c23e 805d 4c3f 01a7 063f
00000240: 482c 9d3c 5e09 6f3f bb50 8f3e df83 91be
00000250: 9c64 a63f 2890 bf3e 442d 9abe 79a8 293d
00000260: 8253 a0be 19d6 2ebe 8d45 753e 024b 9e3e
00000270: c010 e73e 9bfe b9bf 696f 98bd ef1f 3a3e
00000280: c948 c33e bd67 523f 7f38 c13e 5f76 d13e
00000290: b24a 743e 8922 96bd e2c3 01bf bce9 22be
000002a0: c11c b83c f28f 6e3f 9cca 633f 2dcd 9b3e
000002b0: e5b3 41bf d09f 013f 49fa 063f e1fe 61bd
000002c0: a898 bcbe d22f 443f 3f6a efbd 1465 a3be
000002d0: b68a ae3e c4cd 5e3e e81a 2ebd b90e 713c
000002e0: 7326 57be b333 b0bd f386 37be d1aa 0a3d
000002f0: 16a3 07be 929e 143d 471f 2e3d 75b5 5abe
00000300: 9c75 e23d 3121 4cbd 8e00 ad3d 4790 3dbe
00000310: 7264 98be 9e86 813e d4c8 1e3f 83a5 17bf
00000320: 3079 cc3e 4b34 cbbc 4455 bfbf 8d21 94be
00000330: 281e ff3e 3374 923f 8bbc 133e 6e88 8e3d
00000340: 955a ac3c f6d4 48be 54ae 0dbf 0ddd f53e
00000350: 2b20 9bbf 7cc2 41be 5040 583e b0a0 7cbe
00000360: 5274 e13e 4671 a3bf 2dfa 8fbe f037 58be
00000370: 2f3e d2bd 15e3 043d c47b 043e d420 78be
00000380: 4195 a3bd 2bf4 a1bb f2a5 efbd 9954 aebe
00000390: 7326 88bd fe4f 5abe 31a8 093e cb15 6dbe
000003a0: 9179 203d 9114 8b3e 325e 55be 7d28 cabe
000003b0: 13ae bebd 5a3f 783e d440 e7bd d549 843f
000003c0: ae0d 213f c004 1b3e 048f a0be 0000 9abe
000003d0: 7d54 753f 5fdd 383e 28ec 4d3e c6ed 60be
000003e0: 06bd c9bd 8027 ca3d 666c 2abe cc54 6a3e
000003f0: 49e6 aebe 3a7b 88bf 01ac c2be 48ce 21bf
-0.23798384 -0.29734036 0.07669028 0.18328354 -0.1771419 0.14311738 -0.20170492 -0.30152792
-0.24025513 -0.094496354 -0.17563593 0.12854858 -0.17263198 -0.024679124 -0.9371732 0.7271402
-0.41596022 0.3985129 0.2131758 -0.81610125 -0.7834647 0.5205581 0.15981078 -0.6258648
-0.23951724 0.118339926 -0.44830617 -0.22226682 -0.25240314 -0.027930059 -0.1554315 -0.327835
0.024109863 -0.22754143 -0.09620783 0.051712383 0.08417948 0.5540812 -0.036854148 0.029562708
-0.14981331 -0.02143766 0.04176059 -0.04720006 0.18167187 0.4411921 0.48791814 -0.113125265
0.45065647 0.085808136 0.49331036 0.66495126 0.1419901 -0.19756587 -0.3778681 0.24507001
-0.30783707 -0.05753933 0.53816867 0.12819059 0.45718312 -0.19653091 -0.33934405 0.8688875
-0.4569039 1.5459197 -0.0052713645 0.044508886 -0.31755075 0.2649823 -0.17715943 -0.22963314
-0.07225438 -0.024739642 0.013432811 -0.13311273 -0.23830265 -0.0722273 -0.09101442 -0.114014536
-0.16201401 -0.16825895 -0.015708841 -0.20062259 -0.07804013 -0.26614413 -0.11636555 -0.17322533
-0.22239538 -0.23456459 -0.24157266 -0.096398234 -0.26969513 -0.0194353 0.13111082 -0.19816373
-0.2900902 0.08927888 -0.28448358 0.057224333 -0.21301334 -0.038684413 -0.23759092 0.06473692
0.18261653 -0.15086032 -0.25026464 0.24879476 0.2572395 0.22502154 -0.19867331 -0.23989211
-0.06585361 -0.33050272 0.0024084034 -0.31005466 0.068062566 -0.21956733 0.0681415 -0.39870614
-0.04822912 0.31546962 -0.08224836 -0.118122675 -0.3054573 0.15952766 -0.2805177 0.005840981
-0.0064646536 -0.022938075 0.05055877 -0.093957335 -0.11193418 -0.06337719 -0.23845959 -0.29660892
-0.2260621 -0.08967809 -0.14616218 -0.13872284 -0.2058919 0.38003802 0.7983017 0.5259858
0.019186154 0.9337367 0.2799128 -0.28420922 1.2999454 0.3741467 -0.3011266 0.041420434
-0.3131371 -0.1707386 0.23952313 0.309166 0.45129967 -1.4530824 -0.07443125 0.18176244
0.38141468 0.8218954 0.37738416 0.40910622 0.23856619 -0.07330806 -0.5068952 -0.15909475
0.022474648 0.93188393 0.8898103 0.30429974 -0.7566512 0.5063448 0.52725655 -0.055174712
-0.36835217 0.7663547 -0.11690187 -0.31913054 0.34090203 0.21758181 -0.04250613 0.014712983
-0.21010761 -0.08603611 -0.17922573 0.03385431 -0.13245806 0.036284037 0.042510297 -0.21358283
0.110575885 -0.04983634 0.084473714 -0.18512069 -0.29764134 0.25298017 0.6202519 -0.59236926
0.3993621 -0.024805209 -1.4947896 -0.28931847 0.49827695 1.1441711 0.14427392 0.06959616
0.021039287 -0.19612488 -0.5534413 0.4802021 -1.2119192 -0.18921846 0.21118283 -0.24670672
0.44034058 -1.2768943 -0.28120556 -0.21115088 -0.10265767 0.032443125 0.12937838 -0.24231273
-0.07987452 -0.004942437 -0.117015734 -0.34048918 -0.066479586 -0.21319577 0.13443066 -0.23152845
0.039178435 0.27164128 -0.20836714 -0.39484015 -0.09310546 0.24242917 -0.11291662 1.0335032
0.629115 0.1513853 -0.31359112 -0.30078125 0.95832044 0.18053196 0.20109618 -0.21965703
-0.098505065 0.09870815 -0.16642913 0.2288391 -0.3416007 -1.0662606 -0.38021854 -0.63205385

mlp1.bias f4 [64]
00000000: 7b2b 9dbe ecd8 083f 1824 d0be 57c7 10bf
00000010: 88ce 7abe 6429 aabd c378 f83c 00bb 97be
00000020: 6416 eabe e551 72be 56a9 14bf 774b a93d
00000030: 5cad e7be 560f ccbe 4d00 3dbe e91b fc3d
00000040: 0791 b5be 4dce 323f 8c05 783e 400c f2be
00000050: 5ba2 c0be a376 a7be 2114 b5bd ba43 5fbd
00000060: aee4 e3be 6acf 2abe 2539 29be f6eb 24be
00000070: 142d 6d3e 9101 29be 9a85 a4be d043 70be
00000080: a0c8 c7be 5149 e53e 154b a7be 624a fdbc
00000090: 81f0 13be a20a 513d 2441 8fbd cef6 8e3d
000000a0: d569 10bf b3f3 8cbd 767d 21bd a94e cdbe
000000b0: d8f5 6cbd 2508 67be 2de8 12be 773d f6be
000000c0: 1b68 e5be 755d 14be 48fa d8bd 9009 a5be
000000d0: 4cb0 0c3f 215e c03d 8d50 a4be 588d e9be
000000e0: 6500 b13e b3dd cdbe 9ad6 4cbe 97e9 efbe
000000f0: 477e 8bbe 8020 9dbe 05a0 12bf 1079 9ebe
-0.30697235 0.53455997 -0.40652537 -0.5655417 -0.24492848 -0.08308676 0.030331021 -0.29634857
-0.45720208 -0.23664053 -0.58070886 0.08266347 -0.4524945 -0.3985545 -0.18457146 0.12310011
-0.3546221 0.6984604 0.24220866 -0.4727497 -0.37623867 -0.327077 -0.0884173 -0.05450795
-0.44510406 -0.16680685 -0.16525705 -0.16105637 0.23161727 -0.16504504 -0.3213318 -0.23463368
-0.39020252 0.44782498 -0.3267447 -0.030919258 -0.14447214 0.05103553 -0.069948465 0.06980668
-0.56411487 -0.068824194 -0.03942629 -0.40099075 -0.057851642 -0.225617 -0.1434638 -0.4809377
-0.4480599 -0.14488776 -0.10594612 -0.32233858 0.5495651 0.09392954 -0.32092705 -0.4561565
0.34570614 -0.40208206 -0.20003739 -0.46857902 -0.2724478 -0.30688858 -0.5727542 -0.30951738

conv1.nn.weight f4 [64, 14]
00000000: 09b2 73be ff3c 98be cb0f 9d3d aeae 3b3e
00000010: b064 35be 5d8d 123e bc8b 4ebe de61 9abe
00000020: 7105 76be 4e87 c1bd e8d9 33be 3da2 033e
00000030: 70c6 30be e02b cabc 95ea 6fbf dc25 3a3f
00000040: bdf8 d4be e209 cc3e c24a 5a3e 03ec 50bf
00000050: 2591 48bf 4c43 053f 70a5 233e ad38 20bf
00000060: 0244 75be 345c f23d 6388 e5be ea99 63be
00000070: fc3a 81be 94cd e4bc 6f29 1fbe fdd9 a7be
00000080: 0c82 c53c 9f00 69be 9c08 c5bd 5dd0 533d
00000090: 4b66 ac3d 44d8 0d3f 60f4 16bd 7e2d f23c
000000a0: a968 19be 089e afbc 270d 2b3d da54 41bd
000000b0: 3108 3a3e eee3 e13e 68d0 f93e 38ae e7bd
000000c0: 72bc e63e 2dbc af3d 2d93 fc3e 3f3a 2a3f
000000d0: da65 113e b54e 4abe ed77 c1be a2f3 7a3e
000000e0: d29c 9dbe 5cae 6bbd 6cc5 093f 6544 033e
000000f0: e813 ea3e 663f 49be 81be adbe 696f 5e3f
00000100: 4fef e9be b2e0 c53f 69bb acbb f34e 363d
00000110: 0396 a2be c3ab 873e 4869 35be f324 6bbe
00000120: 1bfa 93bd caaa cabc 4b15 5c3c b44e 08be
00000130: 9c05 74be e8eb 93bd c565 babd 7480 e9bd
00000140: 00e7 25be 134c 2cbe d4af 80bc 0270 4dbe
00000150: 81d3 9fbd 0b44 88be 1051 eebd fb61 31be
00000160: 9dbb 63be b331 70be d35e 77be 706c c5bd
00000170: 7b15 8abe c736 9fbc ea41 063e 6feb 4abe
00000180: b486 94be d8d7 b63d d5a7 91be 1064 6a3d
00000190: 2b20 5abe 8c73 1ebd 094b 73be ca94 843d
000001a0: d4ff 3a3e 217b 1abe b022 80be 0ec4 7e3e
000001b0: e5b4 833e 0c6c 663e 0471 4bbe 47a6 75be
000001c0: 42de 86bd a737 a9be 4ed6 1d3b 7cbf 9ebe
000001d0: 6364 8b3d 42d6 60be c58d 8b3d 3623 ccbe
000001e0: e68b 45bd 3c85 a13e d471 a8bd 4dea f1bd
000001f0: e664 9cbe 385b 233e 04a0 8fbe b365 bf3b
00000200: 72d5 d3bb a1e8 bbbc b616 4f3d b46c c0bd
00000210: bf3d e5bd e6cb 81bd c02e 74be 20dd 97be
00000220: d37c 67be 25a9 b7bd 8aab 15be 5c0d 0ebe
00000230: 54d5 52be 5894 c23e 805d 4c3f 01a7 063f
00000240: 482c 9d3c 5e09 6f3f bb50 8f3e df83 91be
00000250: 9c64 a63f 2890 bf3e 442d 9abe 79a8 293d
00000260: 8253 a0be 19d6 2ebe 8d45 753e 024b 9e3e
00000270: c010 e73e 9bfe b9bf 696f 98bd ef1f 3a3e
00000280: c948 c33e bd67 523f 7f38 c13e 5f76 d13e
00000290: b24a 743e 8922 96bd e2c3 01bf bce9 22be
000002a0: c11c b83c f28f 6e3f 9cca 633f 2dcd 9b3e
000002b0: e5b3 41bf d09f 013f 49fa 063f e1fe 61bd
000002c0: a898 bcbe d22f 443f 3f6a efbd 1465 a3be
000002d0: b68a ae3e c4cd 5e3e e81a 2ebd b90e 713c
000002e0: 7326 57be b333 b0bd f386 37be d1aa 0a3d
000002f0: 16a3 07be 929e 143d 471f 2e3d 75b5 5abe
00000300: 9c75 e23d 3121 4cbd 8e00 ad3d 4790 3dbe
00000310: 7264 98be 9e86 813e d4c8 1e3f 83a5 17bf
00000320: 3079 cc3e 4b34 cbbc 4455 bfbf 8d21 94be
00000330: 281e ff3e 3374 923f 8bbc 133e 6e88 8e3d
00000340: 955a ac3c f6d4 48be 54ae 0dbf 0ddd f53e
00000350: 2b20 9bbf 7cc2 41be 5040 583e b0a0 7cbe
00000360: 5274 e13e 4671 a3bf 2dfa 8fbe f037 58be
00000370: 2f3e d2bd 15e3 043d c47b 043e d420 78be
00000380: 4195 a3bd 2bf4 a1bb f2a5 efbd 9954 aebe
00000390: 7326 88bd fe4f 5abe 31a8 093e cb15 6dbe
000003a0: 9179 203d 9114 8b3e 325e 55be 7d28 cabe
000003b0: 13ae bebd 5a3f 783e d440 e7bd d549 843f
000003c0: ae0d 213f c004 1b3e 048f a0be 0000 9abe
000003d0: 7d54 753f 5fdd 383e 28ec 4d3e c6ed 60be
000003e0: 06bd c9bd 8027 ca3d 666c 2abe cc54 6a3e
000003f0: 49e6 aebe 3a7b 88bf 01ac c2be 48ce 21bf
-0.23798384 -0.29734036 0.07669028 0.18328354 -0.1771419 0.14311738 -0.20170492 -0.30152792
-0.24025513 -0.094496354 -0.17563593 0.12854858 -0.17263198 -0.024679124 -0.9371732 0.7271402
-0.41596022 0.3985129 0.2131758 -0.81610125 -0.7834647 0.5205581 0.15981078 -0.6258648
-0.23951724 0.118339926 -0.44830617 -0.22226682 -0.25240314 -0.027930059 -0.1554315 -0.327835
0.024109863 -0.22754143 -0.09620783 0.051712383 0.08417948 0.5540812 -0.036854148 0.029562708
-0.14981331 -0.02143766 0.04176059 -0.04720006 0.18167187 0.4411921 0.48791814 -0.113125265
0.45065647 0.085808136 0.49331036 0.66495126 0.1419901 -0.19756587 -0.3778681 0.24507001
-0.30783707 -0.05753933 0.53816867 0.12819059 0.45718312 -0.19653091 -0.33934405 0.8688875
-0.4569039 1.5459197 -0.0052713645 0.044508886 -0.31755075 0.2649823 -0.17715943 -0.22963314
-0.07225438 -0.024739642 0.013432811 -0.13311273 -0.23830265 -0.0722273 -0.09101442 -0.114014536
-0.16201401 -0.16825895 -0.015708841 -0.20062259 -0.07804013 -0.26614413 -0.11636555 -0.17322533
-0.22239538 -0.23456459 -0.24157266 -0.096398234 -0.26969513 -0.0194353 0.13111082 -0.19816373
-0.2900902 0.08927888 -0.28448358 0.057224333 -0.21301334 -0.038684413 -0.23759092 0.06473692
0.18261653 -0.15086032 -0.25026464 0.24879476 0.2572395 0.22502154 -0.19867331 -0.23989211
-0.06585361 -0.33050272 0.0024084034 -0.31005466 0.068062566 -0.21956733 0.0681415 -0.39870614
-0.04822912 0.31546962 -0.08224836 -0.118122675 -0.3054573 0.15952766 -0.2805177 0.005840981
-0.0064646536 -0.022938075 0.05055877 -0.093957335 -0.11193418 -0.06337719 -0.23845959 -0.29660892
-0.2260621 -0.08967809 -0.14616218 -0.13872284 -0.2058919 0.38003802 0.7983017 0.5259858
0.019186154 0.9337367 0.2799128 -0.28420922 1.2999454 0.3741467 -0.3011266 0.041420434
-0.3131371 -0.1707386 0.23952313 0.309166 0.45129967 -1.4530824 -0.07443125 0.18176244
0.38141468 0.8218954 0.37738416 0.40910622 0.23856619 -0.07330806 -0.5068952 -0.15909475
0.022474648 0.93188393 0.8898103 0.30429974 -0.7566512 0.5063448 0.52725655 -0.055174712
-0.36835217 0.7663547 -0.11690187 -0.31913054 0.34090203 0.21758181 -0.04250613 0.014712983
-0.21010761 -0.08603611 -0.17922573 0.03385431 -0.13245806 0.036284037 0.042510297 -0.21358283
0.110575885 -0.04983634 0.084473714 -0.18512069 -0.29764134 0.25298017 0.6202519 -0.59236926
0.3993621 -0.024805209 -1.4947896 -0.28931847 0.49827695 1.1441711 0.14427392 0.06959616
0.021039287 -0.19612488 -0.5534413 0.4802021 -1.2119192 -0.18921846 0.21118283 -0.24670672
0.44034058 -1.2768943 -0.28120556 -0.21115088 -0.10265767 0.032443125 0.12937838 -0.24231273
-0.07987452 -0.004942437 -0.117015734 -0.34048918 -0.066479586 -0.21319577 0.13443066 -0.23152845
0.039178435 0.27164128 -0.20836714 -0.39484015 -0.09310546 0.24242917 -0.11291662 1.0335032
0.629115 0.1513853 -0.31359112 -0.30078125 0.95832044 0.18053196 0.20109618 -0.21965703
-0.098505065 0.09870815 -0.16642913 0.2288391 -0.3416007 -1.0662606 -0.38021854 -0.63205385

conv1.nn.bias f4 [64]
00000000: 7b2b 9dbe ecd8 083f 1824 d0be 57c7 10bf
00000010: 88ce 7abe 6429 aabd c378 f83c 00bb 97be
00000020: 6416 eabe e551 72be 56a9 14bf 774b a93d
00000030: 5cad e7be 560f ccbe 4d00 3dbe e91b fc3d
00000040: 0791 b5be 4dce 323f 8c05 783e 400c f2be
00000050: 5ba2 c0be a376 a7be 2114 b5bd ba43 5fbd
00000060: aee4 e3be 6acf 2abe 2539 29be f6eb 24be
00000070: 142d 6d3e 9101 29be 9a85 a4be d043 70be
00000080: a0c8 c7be 5149 e53e 154b a7be 624a fdbc
00000090: 81f0 13be a20a 513d 2441 8fbd cef6 8e3d
000000a0: d569 10bf b3f3 8cbd 767d 21bd a94e cdbe
000000b0: d8f5 6cbd 2508 67be 2de8 12be 773d f6be
000000c0: 1b68 e5be 755d 14be 48fa d8bd 9009 a5be
000000d0: 4cb0 0c3f 215e c03d 8d50 a4be 588d e9be
000000e0: 6500 b13e b3dd cdbe 9ad6 4cbe 97e9 efbe
000000f0: 477e 8bbe 8020 9dbe 05a0 12bf 1079 9ebe
-0.30697235 0.53455997 -0.40652537 -0.5655417 -0.24492848 -0.08308676 0.030331021 -0.29634857
-0.45720208 -0.23664053 -0.58070886 0.08266347 -0.4524945 -0.3985545 -0.18457146 0.12310011
-0.3546221 0.6984604 0.24220866 -0.4727497 -0.37623867 -0.327077 -0.0884173 -0.05450795
-0.44510406 -0.16680685 -0.16525705 -0.16105637 0.23161727 -0.16504504 -0.3213318 -0.23463368
-0.39020252 0.44782498 -0.3267447 -0.030919258 -0.14447214 0.05103553 -0.069948465 0.06980668
-0.56411487 -0.068824194 -0.03942629 -0.40099075 -0.057851642 -0.225617 -0.1434638 -0.4809377
-0.4480599 -0.14488776 -0.10594612 -0.32233858 0.5495651 0.09392954 -0.32092705 -0.4561565
0.34570614 -0.40208206 -0.20003739 -0.46857902 -0.2724478 -0.30688858 -0.5727542 -0.30951738

conv1.lin.weight f4 [14, 3]
00000000: 2bbd d53d db4c 52be a874 c53d fc4c efbe
00000010: 8423 64bd 59bc dc3c 111a cebc a87e 31bf
00000020: 7560 86be d374 07bd f4c1 01be 902a 763e
00000030: 46ab 223e a7e2 12bf b98b 2abc 4c3b a03e
00000040: b7cb 03bf f0ab 83bd 7d35 2ebd a4c9 3bbe
00000050: b5e9 6f3f 2104 3d3b 2295 283e 6678 9d3f
00000060: 24ae 283e 5d9c 7b3e 5efa a73f e5d4 5f3e
00000070: b389 5e3d 6c57 53be f047 99bd 0728 613e
00000080: d524 7e3e b03f a03e 88a0 3f3e d355 13bf
00000090: d299 6c3e bc44 e5be ac71 4fbe 7077 0abf
000000a0: a050 05bf c8f9 fabe
0.104364716 -0.2053713 0.09641391 -0.46738422 -0.055697933 0.02694528 -0.025158914 -0.6933389
-0.26245466 -0.033070397 -0.12671643 0.24039674 0.15885648 -0.57377094 -0.010409289 0.3129524
-0.5148272 -0.06429279 -0.04253148 -0.18338639 0.93715984 0.0028841572 0.1646314 1.2302368
0.1647268 0.24571367 1.3123281 0.21858557 0.05433054 -0.20638818 -0.07484424 0.21987925
0.24818738 0.3129859 0.18713582 -0.5755283 0.23105553 -0.44779003 -0.20258206 -0.540885
-0.5207615 -0.49018693

conv1.lin.bias f4 [14]
00000000: 5836 b6bd 5260 b3bd 81f2 94bc 50c8 cebe
00000010: 2ee4 14bf 1b1d a1be 756b 1a3d b69e d7bc
00000020: 24fa 78be de68 e2be 427e 97be 411d a9be
00000030: 7f80 79be c0f2 0ebe
-0.08897084 -0.08758606 -0.018182041 -0.403872 -0.58160675 -0.31467518 0.037700135 -0.026320796
-0.24314171 -0.44220632 -0.29588515 -0.3303013 -0.24365424 -0.1395979

mlp2.weight f4 [64, 64]
00000000: 24e4 3b3d c9e6 20be d1eb b3bd cce2 7a3d
00000010: 1ded 86bd 48ce bdbd 46f7 3c3c f26a c13d
00000020: f72a edbd ca53 00be aec1 8bbd c383 2d3e
00000030: 76d0 01be 0fe6 cebd 9a91 c23d 32b6 e0bc
00000040: 5132 07be 2b1f 66be dd00 173d 3dec 063d
00000050: 76c0 3cbe 89fc 613b 46e2 2abe dfee 96bd
00000060: 4ec0 81bd 2f21 63bd d7cc 1ebe ec43 c7bd
00000070: e9dd 74bc 9393 86bd ae53 31be b048 c5bd
00000080: b1c4 12bd f68a 8bbe e706 9fbc 7886 e9bc
00000090: d331 0cbe 8c45 14be 7b7d 403d c508 acbe
000000a0: 0229 18bd caf0 8f3d 38c4 77bd e0b8 ce3c
000000b0: 1dd4 46bd 4e83 8abe 189c 8fbc 49b2 79bb
000000c0: 1ade 54be 8815 cabc 813f 4bbe b7d5 e13d
000000d0: fd1a 08bb 9e16 52bd fe39 963b 8977 c4bd
000000e0: 65b6 0dbe acb9 0bbe 289c 32be ff60 42bd
000000f0: 4f43 16be 8b00 8f3d 6a89 84bd 3bc8 7b3c
00000100: db8b 49bd ce8c eebd 89b2 7cbc 9eed 31be
00000110: f1e2 06bd 1055 0cbc 179c de3c a4f7 883d
00000120: f34b 01bd d2f5 eabd b266 20be 9949 59bd
00000130: cd7f 18be 678c 59bb c8ff 1dbe b535 86be
00000140: 8569 a4bb 6c28 09bd d796 efbd 04fa 153d
00000150: 058a bc3d 9b34 47be e5eb 37be f25e 65be
00000160: b890 05bd f769 ddbc 1dea 643d 2ca9 6abd
00000170: a7d6 14be 481f 8eba a490 08bd 6499 b5bd
00000180: c080 c9bb 588b 83be 773d 11bc 7f29 9cbc
00000190: 0ede 8cbe cee8 083e f6f6 12be bbd1 6abd
000001a0: b707 30be 302d 103e f827 afbd 8036 063d
000001b0: 379b 16be 2ca6 f2bd 802b f9ba 8edf 163e
000001c0: 531e 1a3d 7702 e03d cc2e d6bd 7a12 e4bd
000001d0: 4540 b03b ef3b 283d 73c4 1c3b 9b87 aabd
000001e0: a934 ecbd 399d c13c b897 39be 1002 2ebb
000001f0: 7838 1e3d fd23 0a3e d39e 51bd 4405 c7bd
00000200: c84a 5ebe 2e9b 9e3e 046a 87bd 0c2d 6e3e
00000210: 98d6 943e c301 cd3c 0fc9 41bd 48a6 dfbd
00000220: 3f5f 3dbe bb2f dbbd aef7 943f 31da 9bbe
00000230: bf14 cbbe 840e 353d 3985 ee3e 38d8 893e
00000240: 4990 8c3d 6143 793c 17f8 723e d4c3 87be
00000250: 5a9d 5fbe 43fb 553e d546 ad3d 00e4 d8bc
00000260: 0a8b 103f f3c9 98bd 018e 33be a0fd b7bd
00000270: 8f9d 2cbe ddec cebd 24aa afbd 053f 9abc
00000280: 2784 6c3f f7eb bbbe 9b35 293e 3088 67bd
00000290: c34e 5dbe 3ead 1ebe 6b97 3d3f 27fd 2abe
000002a0: 5156 42be 0844 233e f9dd fbbc 3309 03bd
000002b0: dafd 47be caaa 32be 2644 febd bda7 c7be
000002c0: a156 8bbd ac28 ac3d 6098 c43e c722 f23e
000002d0: 74ce 1e3d 5980 293f 5557 f0bd 25ce 2f3e
000002e0: d282 5bbe 2a98 4c3f 14e5 e3bd 9b27 b53d
000002f0: 6a58 353f c068 b5bd 2efa d33e a731 eabd
00000300: 960b 54be 6c74 f43d 3b1c 423e 5e43 813f
00000310: e337 cf3e 720e 7fbd d122 93bd 126c c73d
00000320: 6c48 3ebe 192f 5abe deb1 913f 11b2 eabd
00000330: 4c23 a73d d25b 48bd 97c8 13be d279 bbbd
00000340: c361 833d 4722 8fbe 9b8c 12bf 8598 863f
00000350: c58b 963c 981d f63e f7c1 2d3e e6c5 87be
00000360: 7ee2 d63e 039e 22bf f2ad bbbe 5b34 89be
00000370: 9bbc 613e f476 42bd 27af 1fbe 5ad9 8cbe
00000380: 0f06 1d3f 5918 563f e414 123d 80dd e1be
00000390: 2ff4 26bf d60a 20bf 16be 9d3d 4226 ff3e
000003a0: a429 86be 352f 353f c6a3 5f3d e090 6f3d
000003b0: 8baa babd 4245 e6be 1046 ffbd a657 f23d
000003c0: 5a7d c0bd c58b 7dbd 62ae 83be f97a a3be
000003d0: 9e12 3e3c e0d9 babe d3a9 71bd 9c35 52bf
000003e0: b25e 93be f7ca 3d3f 3d0c 3dbf bf05 9e3d
000003f0: 25af adbe 0dc6 00bf 81e1 96bd 12a2 0a3f
0.04587187 -0.15713038 -0.08785213 0.061251447 -0.065881945 -0.09267861 0.011533564 0.09444226
-0.115804605 -0.12531963 -0.06824051 0.16944794 -0.12677178 -0.10102474 0.095004275 -0.027430627
-0.13202788 -0.22472827 0.036866058 0.032940138 -0.18432793 0.0034482798 -0.16687879 -0.0736978
-0.06335507 -0.05545157 -0.15507828 -0.09729752 -0.014945486 -0.06571116 -0.17317078 -0.09633005
-0.03583211 -0.27254456 -0.019412471 -0.028506503 -0.13690881 -0.14479655 0.046994668 -0.3360044
-0.037148483 0.07028349 -0.060489863 0.02523464 -0.04854213 -0.27053303 -0.017530486 -0.003810065
-0.2078785 -0.02466847 -0.19848444 0.11027091 -0.002076804 -0.0512911 0.00458455 -0.09593112
-0.13839109 -0.13645047 -0.17442381 -0.047455784 -0.14674114 0.069825254 -0.06471522 0.015367563
-0.049205642 -0.1164795 -0.0154234255 -0.173758 -0.032931272 -0.008565202 0.027174039 0.06687859
-0.03156657 -0.11472668 -0.15664175 -0.053048704 -0.14892502 -0.0033195259 -0.15429604 -0.2621285
-0.0050174617 -0.033485815 -0.11698692 0.036615387 0.09206013 -0.19453661 -0.1796108 -0.223995
-0.032608718 -0.027028067 0.05588733 -0.05729024 -0.14535008 -0.0010843063 -0.033341065 -0.088671476
-0.0061493814 -0.25692248 -0.008864752 -0.019062756 -0.27513164 0.13370058 -0.1435202 -0.05732892
-0.17190443 0.14079738 -0.08552545 0.03276682 -0.14707647 -0.11848101 -0.0019010156 0.14733717
0.037626576 0.1093797 -0.104581445 -0.111363366 0.0053787553 0.041072782 0.0023920804 -0.08326646
-0.11533482 0.02363454 -0.18124282 -0.0026551522 0.03862807 0.13490291 -0.051176857 -0.09717801
-0.21708214 0.30977768 -0.06612018 0.23259372 0.29069972 0.025025254 -0.047310885 -0.109203875
-0.18493365 -0.10702463 1.1638086 -0.30439904 -0.39664266 0.044203296 0.46586016 0.26922774
0.06863458 0.015213818 0.23727451 -0.26516593 -0.21837369 0.2089663 0.08460776 -0.026475906
0.56462157 -0.07460394 -0.17534639 -0.08983922 -0.16856979 -0.10103772 -0.085773736 -0.018828878
0.9238915 -0.36703464 0.16524355 -0.056526363 -0.21612076 -0.15495774 0.7405917 -0.16698132
-0.1897824 0.1594392 -0.030745493 -0.031991195 -0.1953043 -0.17447963 -0.12415342 -0.38995162
-0.068036325 0.08406195 0.38397503 0.47292158 0.038771108 0.6621147 -0.11735407 0.17168482
-0.21436623 0.79919684 -0.111276776 0.08845445 0.70838034 -0.0885787 0.4140181 -0.11435252
-0.20707545 0.11936268 0.18956082 1.0098684 0.40472326 -0.062269635 -0.07184375 0.0973741
-0.18582314 -0.21307029 1.1382406 -0.11459745 0.08161029 -0.04891569 -0.14431988 -0.09154095
0.06415131 -0.2795584 -0.57245797 1.0515295 0.018377194 0.48069453 0.16968523 -0.26518172
0.41969675 -0.63522357 -0.36656147 -0.26797757 0.22044604 -0.047476724 -0.15594159 -0.27509576
0.6133737 0.836309 0.035664454 -0.44114304 -0.65216345 -0.62516534 0.07702272 0.49833876
-0.26203644 0.7077516 0.054599546 0.058487773 -0.0911456 -0.44974715 -0.12464535 0.11833124
-0.09398909 -0.061900873 -0.2571898 -0.31929758 0.011601118 -0.3649435 -0.058999848 -0.8211305
-0.28783184 0.74137825 -0.738468 0.0771594 -0.33922687 -0.503022 -0.0736723 0.5415355

mlp2.bias f4 [64]
00000000: 1761 12be 15c2 96be c25e a1be f9c2 0abf
00000010: 635b acbd 0bef 2ebe cf54 29be 22c0 f43c
00000020: 133a 6ebe 8ccf 863e 366e a2be 22da c13e
00000030: 20a2 56bf 2075 1e3c b9d0 64be 6d4c 4cbf
00000040: 4de8 c43d e392 29be 62cc 98bd 909d 56be
00000050: 8fed 0dbd bbca a1bd e337 09bf b51e 0ebe
00000060: 3d95 e4bd 8084 30bf 736f 4bbe c57f 4cbe
00000070: aaa7 98bc 8c7e 2dba 9f9a 963e 448f 1cbe
00000080: 1270 04bd 9051 cfbd 67fc 00bf 20a8 edbd
00000090: 4382 78bd 875a c2be d49b e53e 13cb 00bd
000000a0: dc9a 07be 718e 32be f7e8 a2bd cdc9 8d3d
000000b0: af3c ddbd bbff 9dbd 7e58 84bd 4716 1abe
000000c0: 79f4 a6be 9fde 643b 4890 7ebe 277e 8b3f
000000d0: fc81 a13e 826a 543e dc1c fdbd 0ad0 733f
000000e0: 0bf1 c6bd 2eee 33bd 5873 aabe e55c 19be
000000f0: 02cd c6be f192 353f 4abc dcbd e3bd acbc
-0.1429485 -0.29444948 -0.31517607 -0.54203755 -0.08415868 -0.17083375 -0.16536258 0.029876772
-0.23264341 0.2633022 -0.3172471 0.37861735 -0.83841133 0.009671479 -0.22345246 -0.79804116
0.0961462 -0.16559939 -0.07460858 -0.20958543 -0.03465038 -0.07899996 -0.536009 -0.13878901
-0.111612774 -0.6895218 -0.19866733 -0.19970615 -0.018634636 -0.0006618283 0.29414842 -0.15289026
-0.03233344 -0.10122979 -0.50385135 -0.11604333 -0.060671102 -0.37959692 0.4484545 -0.031443667
-0.13242668 -0.1743715 -0.07954591 0.06923256 -0.1080259 -0.07714792 -0.06462191 -0.1504756
-0.32608393 0.0034922732 -0.24859726 1.0897874 0.31544483 0.20743755 -0.1235902 0.9523932
-0.09713944 -0.043928318 -0.33291125 -0.14976843 -0.38828284 0.7092734 -0.10778101 -0.021086639

conv2.nn.weight f4 [64, 64]
00000000: 24e4 3b3d c9e6 20be d1eb b3bd cce2 7a3d
00000010: 1ded 86bd 48ce bdbd 46f7 3c3c f26a c13d
00000020: f72a edbd ca53 00be aec1 8bbd c383 2d3e
00000030: 76d0 01be 0fe6 cebd 9a91 c23d 32b6 e0bc
00000040: 5132 07be 2b1f 66be dd00 173d 3dec 063d
00000050: 76c0 3cbe 89fc 613b 46e2 2abe dfee 96bd
00000060: 4ec0 81bd 2f21 63bd d7cc 1ebe ec43 c7bd
00000070: e9dd 74bc 9393 86bd ae53 31be b048 c5bd
00000080: b1c4 12bd f68a 8bbe e706 9fbc 7886 e9bc
00000090: d331 0cbe 8c45 14be 7b7d 403d c508 acbe
000000a0: 0229 18bd caf0 8f3d 38c4 77bd e0b8 ce3c
000000b0: 1dd4 46bd 4e83 8abe 189c 8fbc 49b2 79bb
000000c0: 1ade 54be 8815 cabc 813f 4bbe b7d5 e13d
000000d0: fd1a 08bb 9e16 52bd fe39 963b 8977 c4bd
000000e0: 65b6 0dbe acb9 0bbe 289c 32be ff60 42bd
000000f0: 4f43 16be 8b00 8f3d 6a89 84bd 3bc8 7b3c
00000100: db8b 49bd ce8c eebd 89b2 7cbc 9eed 31be
00000110: f1e2 06bd 1055 0cbc 179c de3c a4f7 883d
00000120: f34b 01bd d2f5 eabd b266 20be 9949 59bd
00000130: cd7f 18be 678c 59bb c8ff 1dbe b535 86be
00000140: 8569 a4bb 6c28 09bd d796 efbd 04fa 153d
00000150: 058a bc3d 9b34 47be e5eb 37be f25e 65be
00000160: b890 05bd f769 ddbc 1dea 643d 2ca9 6abd
00000170: a7d6 14be 481f 8eba a490 08bd 6499 b5bd
00000180: c080 c9bb 588b 83be 773d 11bc 7f29 9cbc
00000190: 0ede 8cbe cee8 083e f6f6 12be bbd1 6abd
000001a0: b707 30be 302d 103e f827 afbd 8036 063d
000001b0: 379b 16be 2ca6 f2bd 802b f9ba 8edf 163e
000001c0: 531e 1a3d 7702 e03d cc2e d6bd 7a12 e4bd
000001d0: 4540 b03b ef3b 283d 73c4 1c3b 9b87 aabd
000001e0: a934 ecbd 399d c13c b897 39be 1002 2ebb
000001f0: 7838 1e3d fd23 0a3e d39e 51bd 4405 c7bd
00000200: c84a 5ebe 2e9b 9e3e 046a 87bd 0c2d 6e3e
00000210: 98d6 943e c301 cd3c 0fc9 41bd 48a6 dfbd
00000220: 3f5f 3dbe bb2f dbbd aef7 943f 31da 9bbe
00000230: bf14 cbbe 840e 353d 3985 ee3e 38d8 893e
00000240: 4990 8c3d 6143 793c 17f8 723e d4c3 87be
00000250: 5a9d 5fbe 43fb 553e d546 ad3d 00e4 d8bc
00000260: 0a8b 103f f3c9 98bd 018e 33be a0fd b7bd
00000270: 8f9d 2cbe ddec cebd 24aa afbd 053f 9abc
00000280: 2784 6c3f f7eb bbbe 9b35 293e 3088 67bd
00000290: c34e 5dbe 3ead 1ebe 6b97 3d3f 27fd 2abe
000002a0: 5156 42be 0844 233e f9dd fbbc 3309 03bd
000002b0: dafd 47be caaa 32be 2644 febd bda7 c7be
000002c0: a156 8bbd ac28 ac3d 6098 c43e c722 f23e
000002d0: 74ce 1e3d 5980 293f 5557 f0bd 25ce 2f3e
000002e0: d282 5bbe 2a98 4c3f 14e5 e3bd 9b27 b53d
000002f0: 6a58 353f c068 b5bd 2efa d33e a731 eabd
00000300: 960b 54be 6c74 f43d 3b1c 423e 5e43 813f
00000310: e337 cf3e 720e 7fbd d122 93bd 126c c73d
00000320: 6c48 3ebe 192f 5abe deb1 913f 11b2 eabd
00000330: 4c23 a73d d25b 48bd 97c8 13be d279 bbbd
00000340: c361 833d 4722 8fbe 9b8c 12bf 8598 863f
00000350: c58b 963c 981d f63e f7c1 2d3e e6c5 87be
00000360: 7ee2 d63e 039e 22bf f2ad bbbe 5b34 89be
00000370: 9bbc 613e f476 42bd 27af 1fbe 5ad9 8cbe
00000380: 0f06 1d3f 5918 563f e414 123d 80dd e1be
00000390: 2ff4 26bf d60a 20bf 16be 9d3d 4226 ff3e
000003a0: a429 86be 352f 353f c6a3 5f3d e090 6f3d
000003b0: 8baa babd 4245 e6be 1046 ffbd a657 f23d
000003c0: 5a7d c0bd c58b 7dbd 62ae 83be f97a a3be
000003d0: 9e12 3e3c e0d9 babe d3a9 71bd 9c35 52bf
000003e0: b25e 93be f7ca 3d3f 3d0c 3dbf bf05 9e3d
000003f0: 25af adbe 0dc6 00bf 81e1 96bd 12a2 0a3f
0.04587187 -0.15713038 -0.08785213 0.061251447 -0.065881945 -0.09267861 0.011533564 0.09444226
-0.115804605 -0.12531963 -0.06824051 0.16944794 -0.12677178 -0.10102474 0.095004275 -0.027430627
-0.13202788 -0.22472827 0.036866058 0.032940138 -0.18432793 0.0034482798 -0.16687879 -0.0736978
-0.06335507 -0.05545157 -0.15507828 -0.09729752 -0.014945486 -0.06571116 -0.17317078 -0.09633005
-0.03583211 -0.27254456 -0.019412471 -0.028506503 -0.13690881 -0.14479655 0.046994668 -0.3360044
-0.037148483 0.07028349 -0.060489863 0.02523464 -0.04854213 -0.27053303 -0.017530486 -0.003810065
-0.2078785 -0.02466847 -0.19848444 0.11027091 -0.002076804 -0.0512911 0.00458455 -0.09593112
-0.13839109 -0.13645047 -0.17442381 -0.047455784 -0.14674114 0.069825254 -0.06471522 0.015367563
-0.049205642 -0.1164795 -0.0154234255 -0.173758 -0.032931272 -0.008565202 0.027174039 0.06687859
-0.03156657 -0.11472668 -0.15664175 -0.053048704 -0.14892502 -0.0033195259 -0.15429604 -0.2621285
-0.0050174617 -0.033485815 -0.11698692 0.036615387 0.09206013 -0.19453661 -0.1796108 -0.223995
-0.032608718 -0.027028067 0.05588733 -0.05729024 -0.14535008 -0.0010843063 -0.033341065 -0.088671476
-0.0061493814 -0.25692248 -0.008864752 -0.019062756 -0.27513164 0.13370058 -0.1435202 -0.05732892
-0.17190443 0.14079738 -0.08552545 0.03276682 -0.14707647 -0.11848101 -0.0019010156 0.14733717
0.037626576 0.1093797 -0.104581445 -0.111363366 0.0053787553 0.041072782 0.0023920804 -0.08326646
-0.11533482 0.02363454 -0.18124282 -0.0026551522 0.03862807 0.13490291 -0.051176857 -0.09717801
-0.21708214 0.30977768 -0.06612018 0.23259372 0.29069972 0.025025254 -0.047310885 -0.109203875
-0.18493365 -0.10702463 1.1638086 -0.30439904 -0.39664266 0.044203296 0.46586016 0.26922774
0.06863458 0.015213818 0.23727451 -0.26516593 -0.21837369 0.2089663 0.08460776 -0.026475906
0.56462157 -0.07460394 -0.17534639 -0.08983922 -0.16856979 -0.10103772 -0.085773736 -0.018828878
0.9238915 -0.36703464 0.16524355 -0.056526363 -0.21612076 -0.15495774 0.7405917 -0.16698132
-0.1897824 0.1594392 -0.030745493 -0.031991195 -0.1953043 -0.17447963 -0.12415342 -0.38995162
-0.068036325 0.08406195 0.38397503 0.47292158 0.038771108 0.6621147 -0.11735407 0.17168482
-0.21436623 0.79919684 -0.111276776 0.08845445 0.70838034 -0.0885787 0.4140181 -0.11435252
-0.20707545 0.11936268 0.18956082 1.0098684 0.40472326 -0.062269635 -0.07184375 0.0973741
-0.18582314 -0.21307029 1.1382406 -0.11459745 0.08161029 -0.04891569 -0.14431988 -0.09154095
0.06415131 -0.2795584 -0.57245797 1.0515295 0.018377194 0.48069453 0.16968523 -0.26518172
0.41969675 -0.63522357 -0.36656147 -0.26797757 0.22044604 -0.047476724 -0.15594159 -0.27509576
0.6133737 0.836309 0.035664454 -0.44114304 -0.65216345 -0.62516534 0.07702272 0.49833876
-0.26203644 0.7077516 0.054599546 0.058487773 -0.0911456 -0.44974715 -0.12464535 0.11833124
-0.09398909 -0.061900873 -0.2571898 -0.31929758 0.011601118 -0.3649435 -0.058999848 -0.8211305
-0.28783184 0.74137825 -0.738468 0.0771594 -0.33922687 -0.503022 -0.0736723 0.5415355

conv2.nn.bias f4 [64]
00000000: 1761 12be 15c2 96be c25e a1be f9c2 0abf
00000010: 635b acbd 0bef 2ebe cf54 29be 22c0 f43c
00000020: 133a 6ebe 8ccf 863e 366e a2be 22da c13e
00000030: 20a2 56bf 2075 1e3c b9d0 64be 6d4c 4cbf
00000040: 4de8 c43d e392 29be 62cc 98bd 909d 56be
00000050: 8fed 0dbd bbca a1bd e337 09bf b51e 0ebe
00000060: 3d95 e4bd 8084 30bf 736f 4bbe c57f 4cbe
00000070: aaa7 98bc 8c7e 2dba 9f9a 963e 448f 1cbe
00000080: 1270 04bd 9051 cfbd 67fc 00bf 20a8 edbd
00000090: 4382 78bd 875a c2be d49b e53e 13cb 00bd
000000a0: dc9a 07be 718e 32be f7e8 a2bd cdc9 8d3d
000000b0: af3c ddbd bbff 9dbd 7e58 84bd 4716 1abe
000000c0: 79f4 a6be 9fde 643b 4890 7ebe 277e 8b3f
000000d0: fc81 a13e 826a 543e dc1c fdbd 0ad0 733f
000000e0: 0bf1 c6bd 2eee 33bd 5873 aabe e55c 19be
000000f0: 02cd c6be f192 353f 4abc dcbd e3bd acbc
-0.1429485 -0.29444948 -0.31517607 -0.54203755 -0.08415868 -0.17083375 -0.16536258 0.029876772
-0.23264341 0.2633022 -0.3172471 0.37861735 -0.83841133 0.009671479 -0.22345246 -0.79804116
0.0961462 -0.16559939 -0.07460858 -0.20958543 -0.03465038 -0.07899996 -0.536009 -0.13878901
-0.111612774 -0.6895218 -0.19866733 -0.19970615 -0.018634636 -0.0006618283 0.29414842 -0.15289026
-0.03233344 -0.10122979 -0.50385135 -0.11604333 -0.060671102 -0.37959692 0.4484545 -0.031443667
-0.13242668 -0.1743715 -0.07954591 0.06923256 -0.1080259 -0.07714792 -0.06462191 -0.1504756
-0.32608393 0.0034922732 -0.24859726 1.0897874 0.31544483 0.20743755 -0.1235902 0.9523932
-0.09713944 -0.043928318 -0.33291125 -0.14976843 -0.38828284 0.7092734 -0.10778101 -0.021086639

conv2.lin.weight f4 [64, 3]
00000000: a66e 5cbd 1321 82be cc10 0cbf 6862 95bf
00000010: e660 95bf 9c81 08be 7912 303e 867a c43d
00000020: f11c c93e 1068 44bf bc86 853e edf7 5f3e
00000030: 962b 293f 9364 183f fb54 213f 97df ccbe
00000040: 803f ec3d e8a0 e23e 99c2 db3d 00fe ea3a
00000050: 7551 9fbe 376e 8fbe dbc4 c6be d00c 3a3d
00000060: a604 3c3e 24c6 053e 6302 8ebd 31ff 5a3e
00000070: c3b4 813c 5a72 0cbc 7456 833d 7f26 153f
00000080: f782 943e 9cf0 3dbf c905 2ebf 7704 f3bf
00000090: 421b 3d3d 3339 dcbe 5cf0 473c 25bd 8e3e
000000a0: dd24 debb 1a1c 833e f975 b83e 2177 c7bf
000000b0: 664d 02bf 4bcd 773c 07ae c6bd 1b3d c8be
000000c0: c57f 63be 94df fe3d 3d2e fe3c 2bdb cfbf
000000d0: 8562 e23e 7cfa 8dbf 1b99 dabe 651d 14bf
000000e0: 5b3c b5bc 1361 72bf 53a5 80bd b80d 073f
000000f0: 5d7b 50be dc69 aa3e 3fef 003e 14bf 9cbf
00000100: 0b7f 9ebf ece9 163f ce77 053f d722 bdbd
00000110: 605e d23e 8634 f13e 495d b93e eee8 223f
00000120: 5dfa 5c3d d9ec 24be f66d 1d3f 11cc b0be
00000130: fd36 c3be 44d3 643e 2c2b f7be d9ce 503e
00000140: 8cbd 1f3f 9d1e 0cbf f738 2d3e 44ce 3dbd
00000150: aade 4dbf acbc 26bf d6e5 453e 9876 20bf
00000160: e222 9cbe 805e a63d 25de f1bd 92f4 683d
00000170: 3248 02bf db79 55bd b13a 45bf b7b6 0fbf
00000180: d496 143e 541b 083f 4b07 483e cf64 5fbf
00000190: 757b bfbe 86b3 ba3d cb93 06bf 30de 9c3d
000001a0: 402b 383e deae cfbe cdda 7b3d c974 d3be
000001b0: 0b05 7fbd d22e fc3c 1945 513e 9e3d b9bf
000001c0: adb5 d7be 4c5e ab3f f822 06bf d35e 0c3f
000001d0: aaef f03d 2625 4bbe 9f66 903d 561b 12be
000001e0: f893 a0be 536f 73be 7562 723e b379 c53b
000001f0: fffa 653e 9435 6abf 2bbf c73d 2b8f 01bf
00000200: 14b6 a2be f86d b53e b0e5 ed3d 70d6 043e
00000210: a614 81be 5752 cd3d 9f02 7f3e d80f 85be
00000220: d734 a23d 3be6 a2be 42d3 50be a0e5 b33c
00000230: bca2 78be d77d 25bd f806 d43e ff3d 803e
00000240: aa44 adbf f892 293f 95af 0b3f eac2 6abd
00000250: 50ed 273e 0906 debd a441 6d3e e947 c9be
00000260: e797 07bf 9070 0bbf 5e77 74be 8dad e13e
00000270: fee8 85be ae73 3d3e 791a 0c3e 66b6 09c0
00000280: aca6 1b3f 244d b63f 9edb 883e 10ed 66bd
00000290: af76 ef3e a32f d93e 6540 95bd 5e78 48bd
000002a0: 0a98 0b3e 6536 c13e 1f5a 963e a48e 093f
000002b0: 47bc 483f ca73 8abe e8db 2a3d 4dc3 1abf
000002c0: 1f0d b73e fadc d4bc 1a15 0ebf a4b5 0dbf
000002d0: 5b31 a5bc 9e00 913e eac2 3abe 9100 c7be
000002e0: ed5b 8b3e 2f93 133f fc0e c13d 823c 57be
000002f0: a279 1cbf e349 953e de0d 98bf 0977 713e
-0.05381646 -0.2541586 -0.5471313 -1.1670656 -1.1670196 -0.13330692 0.17194547 0.09593682
0.39279893 -0.76721287 0.26079357 0.2187192 0.6608213 0.59528464 0.63020295 -0.40014336
0.11535549 0.44263387 0.10730476 0.0017928481 -0.31116834 -0.28013775 -0.38822064 0.045422375
0.18361148 0.13063866 -0.06934049 0.2138641 0.015833264 -0.008572185 0.06412974 0.58261865
0.29006168 -0.74195266 -0.6797758 -1.8985738 0.046168573 -0.4301239 0.012203302 0.2787868
-0.006779297 0.25607377 0.36027506 -1.558323 -0.5089935 0.015124629 -0.09701162 -0.3910912
-0.22216709 0.12444988 0.031027908 -1.623876 0.4421579 -1.1092067 -0.42694935 -0.5785735
-0.022123506 -0.94679374 -0.06281533 0.5275531 -0.2035956 0.3328389 0.12591265 -1.2245812
-1.238252 0.58950686 0.5213593 -0.09235161 0.41087627 0.47110385 0.36203983 0.6363667
0.053949703 -0.16105975 0.6149591 -0.3453069 -0.3812789 0.22346216 -0.48275125 0.20391406
0.623986 -0.5473421 0.16916262 -0.04633929 -0.80417883 -0.6513164 0.19325957 -0.6268096
-0.30495363 0.08123493 -0.11809949 0.056873865 -0.5089141 -0.052118164 -0.7704268 -0.56138176
0.14510661 0.531667 0.19534032 -0.87263197 -0.37398878 0.09116273 -0.52569264 0.076595664
0.17985249 -0.405631 0.06148796 -0.41300038 -0.06226067 0.030784044 0.20436515 -1.4471929
-0.42130795 1.3388152 -0.5239711 0.5483219 0.11764462 -0.1983839 0.070508234 -0.1426824
-0.3136289 -0.23772936 0.23670371 0.0060264706 0.22459029 -0.91488004 0.09753259 -0.5060908
-0.3177954 0.35435462 0.11616075 0.12972426 -0.25211066 0.10025471 0.24903344 -0.2598865
0.07920235 -0.31816277 -0.20393088 0.02196008 -0.24280828 -0.040403213 0.41411567 0.250473
-1.353658 0.6623988 0.5456479 -0.05731479 0.16399121 -0.10840995 0.23169571 -0.39312676
-0.5296616 -0.5446863 -0.2387366 0.4407772 -0.2615432 0.1850116 0.13681974 -2.1517577
0.60801196 1.4242291 0.26730055 -0.056378424 0.46770236 0.42419156 -0.07287673 -0.048942916
0.13632217 0.37736812 0.29365632 0.5373328 0.7841229 -0.27041465 0.041713625 -0.60454255
0.35752198 -0.025984276 -0.5550095 -0.55355287 -0.020165136 0.28320783 -0.18238416 -0.3886762
0.2721857 0.5764646 0.09426686 -0.21019176 -0.61123097 0.29157934 -1.1879232 0.23580565

conv2.lin.bias f4 [64]
00000000: 7f59 2cbd 7ff9 f2bf 4e64 0dbf b3c7 6dbf
00000010: 76a5 2dbf 3dfd 0ebf 9cdc 0ebe bca0 b5be
00000020: 947f cdbe 9916 aabe a881 20bf 757e 05bf
00000030: 2e1f 64bd 3bf9 27bf 2740 f0be d2f6 b0be
00000040: a40d 95be 3876 20bf bb41 8ebe dbe9 0a3d
00000050: 7066 adbe 8513 d2be f145 09bf f97a 753e
00000060: d164 84bd f065 8bbe 13cc 71be 70b9 39be
00000070: ad91 45bf fe33 1abf f99a 96bd 6f1b af3e
00000080: 8b57 15bf 222a 23bf 97ae 8bbe 4742 fcbd
00000090: a506 67be 25ca 75bf 45ed 16bf 64f2 babd
000000a0: eff0 e8be fc48 c5be 6974 b5be 7e0a 0dbf
000000b0: 64e5 973d 03d9 edbd d3e1 94be 3d44 e6bd
000000c0: 3fc3 2d3d ca21 afbe f1a1 53bf 0e0a 14be
000000d0: 63c5 c9be c1ba 28bf 0710 04bf d3fe 72be
000000e0: 000b 593f e9df 57bf 8365 c4be 62c5 e5bd
000000f0: d307 ccbe fb5d 43bf f1d6 f3bd e125 bcbe
-0.042077538 -1.898239 -0.5523118 -0.9288284 -0.678306 -0.5585516 -0.13951343 -0.35474193
-0.40136397 -0.33220366 -0.6269784 -0.52146083 -0.055693798 -0.6561467 -0.46923944 -0.3456331
-0.2911197 -0.6268039 -0.27784523 0.03391443 -0.33867216 -0.41030517 -0.5362235 0.23972692
-0.06464542 -0.2722621 -0.23613004 -0.18137145 -0.7717541 -0.60235584 -0.073537774 0.34200618
-0.58336705 -0.63736165 -0.2728164 -0.12317329 -0.22561128 -0.96011573 -0.58955795 -0.091282636
-0.45496318 -0.38532245 -0.35440376 -0.55094135 0.074168 -0.11613657 -0.2907854 -0.11243484
0.04242253 -0.34205467 -0.8266898 -0.1445696 -0.39408407 -0.65909964 -0.51586956 -0.2373002
0.8478241 -0.84326035 -0.38358697 -0.112192884 -0.3984972 -0.7631528 -0.11906231 -0.3674765

mlp3.weight f4 [64, 64]
00000000: a1ab 4e3c 5bc5 0d3e a94c 3d3f 1440 f2bd
00000010: 17d3 d53d 24ee a4bd c42e e03f 509f 05be
00000020: 6610 4dbd dfbe f8be be59 113e c7db 7ebe
00000030: cbe8 733e 2dc9 a83e 7f9f 273e ffae 40bd
00000040: dc8e ec3d f113 30bd c576 4cbe 3f4f ee3f
00000050: 712c 283d 66b7 063d 2278 1bbd 586c 9fbe
00000060: 30a0 77be e510 f63e 9d80 433d da7f 52bd
00000070: 0d96 dcbe 4f1a c3bd 760e 26bf 9c41 07be
00000080: 5596 55bd d9a6 b23d f058 893f 5220 a3bf
00000090: d0c6 88be 13db bb3e d303 843e 664e db3f
000000a0: e400 45bc 3f2c 98bd da54 113e 280f 2c3f
000000b0: e423 3f3d fd6f 3dbd ee20 923c 0942 eb3d
000000c0: 8d06 3d3d 265d 98bf f160 6c3d af67 89bf
000000d0: 69b1 55bf d287 9a3e b07a b23c 6ed6 56bf
000000e0: ad69 c53f fae5 47be 0523 5b3e 129e 72bf
000000f0: 3b19 e0be 4b34 36bf e6b8 763d 93d7 82bc
00000100: 33f3 63be abc8 033e 1c20 343d f616 e5be
00000110: 3eb4 e83d 4686 813e 2a71 23be 770b 7c3e
00000120: 1c89 79bf 59d1 09c0 113c ca3d cf11 293d
00000130: 6b40 59bf 661c 3e3d e99c 75bf 9fb4 a0bf
00000140: c318 79bd 25d2 d73d 1315 5fbf d834 98bd
00000150: d20f 0f3d 20e0 a7bd 4d89 85bf 58cb 0bc0
00000160: b03e 56bc baa7 91bf 2b2e 1f3e 4b61 ea3c
00000170: 8233 653e 0b63 d73d d786 133a 8f43 203e
00000180: 68b6 8c3d 99c5 643e fa7f 0ebf 17fe ba3e
00000190: 7008 45bf 6f99 3cbf 9b61 a1bf 217d 2ebe
000001a0: 666c 78bd ca2f 113e fb3c 42bd 1037 2abf
000001b0: 88a7 12be 8191 34be 8bff 3b3e 8f0c e13c
000001c0: 05ec 373e 974b 243f 970a 923e 249b eabf
000001d0: 5955 b2bf 2b42 4fbf 279a 213e 3de5 97bf
000001e0: 20da 973e 6abe 61bd c9d8 c03d 1d07 9d3e
000001f0: f823 9dbf e4d1 a0bd 441e 143e 2058 71bd
00000200: ccae 1dbd 0cea 99be d3c7 073e fef1 cabf
00000210: f7a5 773d 79d4 9fbd d8fb 88bf 7bad ab3d
00000220: 7acf 043e 9c1c 803e cea8 ef3e 6231 a13e
00000230: 86f2 0f3f 6818 403e 20b8 093f 1f42 32be
00000240: 482a 863e 9f81 13be 5744 36bd bd18 8bbf
00000250: 9a7c 2c3a 8a07 37be 4806 b3bf 8b00 bfbf
00000260: b662 ac3e 04ef ecbe 7bae 473d 987f 44be
00000270: e70f 23bd c767 c5bd c862 41be 19f1 143d
00000280: f50e 30bd e554 2cbe 700c 27bf 58ba 7a3e
00000290: bbf4 803c 8295 9f3e d54a 183f 9b54 60bf
000002a0: c091 013e 7c11 523d 22b4 7a3e e805 96be
000002b0: 8a23 043e e35a 0e3d 58aa 5e3e 47e3 a93d
000002c0: e35b b13d 8014 663e dbd8 573e 0819 b9be
000002d0: 9b5e 0fbf f52d 9cbf e1f6 e4bd 6268 80be
000002e0: e356 14be e79f 0dbc cbe8 093e 5934 643e
000002f0: a83a a0bd 15d5 00bf 92fe 083e 7d13 c63d
00000300: 126b abbd 6a0a acbd cc06 28be 1e12 3ebe
00000310: 6e26 33be 8874 16bd 8bdf a83c c8ff 923c
00000320: 0569 9bbe 98c0 d9bd 764d 8ebe d1a1 8cbe
00000330: fafc 65be 52a6 cbbd 1edb cdbd 7f61 2fbe
00000340: 87c6 9e3e b68b bfbe fd1a 6abe 356a e0bd
00000350: 327f 8a3d 1cd0 c53d 34b0 203d 0e57 dfbe
00000360: c768 d1be 81cd 74be 80fb ea3a c82e 90bd
00000370: 1c97 193e 7c81 89bd 0afb 59be 607a 5b3c
00000380: 7395 58be 3465 fbbd 581d 7dbd b593 23be
00000390: 0e85 fcbd 68bf d4bd 52a8 cfbd 41be 653e
000003a0: 5182 b7be 9052 55bd 7390 31be 3be7 f8bd
000003b0: 3a74 d53d 5276 ea3d a650 08be 8124 a3be
000003c0: 55ae 213d 57f0 343e 856a 783d d43c 73be
000003d0: 05c3 15be 4132 b1be b063 b63c f9d3 c6be
000003e0: 620d 22be ab0a c03e 515d 8abe 1bfa 37be
000003f0: dfa3 50be a78e 8fbe 046c f4bd 28ff 99bd
0.012614162 0.13844816 0.739451 -0.11828628 0.10440653 -0.08053234 1.7514272 -0.13049054
-0.050064467 -0.48583123 0.1419439 -0.24888526 0.23819272 0.32965985 0.16369437 -0.04704189
0.11550686 -0.042987768 -0.19967182 1.8617934 0.041058008 0.032889746 -0.037956364 -0.31137347
-0.241822 0.48059765 0.047730077 -0.05139146 -0.4308323 -0.09526502 -0.64865816 -0.13208622
-0.05214532 0.0872323 1.0730267 -1.2744238 -0.26714182 0.36690578 0.25784168 1.71333
-0.012024138 -0.07430314 0.14192525 0.67210627 0.046665087 -0.04624938 0.017837968 0.114872046
0.046148825 -1.1903427 0.057709638 -1.0734767 -0.8347383 0.30181748 0.021787018 -0.83920944
1.5422875 -0.19521323 0.21400078 -0.94772446 -0.4376925 -0.7117354 0.060234927 -0.015971934
-0.22260742 0.12869518 0.043975934 -0.4474408 0.113625035 0.25297755 -0.15961137 0.24613748
-0.9747484 -2.1534026 0.09874738 0.04127675 -0.8486392 0.0464138 -0.9594255 -1.2555121
-0.06081463 0.10538129 -0.8714153 -0.07431954 0.034927197 -0.08197045 -1.0432526 -2.184286
-0.013076469 -1.1379311 0.15544955 0.028610846 0.2238293 0.10516938 0.00056276977 0.15650772
0.06870729 0.22341003 -0.55664027 0.3652198 -0.76966 -0.7367162 -1.2607912 -0.1703992
-0.06065025 0.14178386 -0.047421437 -0.6649027 -0.1432172 -0.1763363 0.183592 0.027471809
0.17961128 0.6417784 0.28523704 -1.8328595 -1.3932296 -0.8096034 0.1578146 -1.1866833
0.29658604 -0.055113234 0.094163485 0.3066949 -1.2276602 -0.078525335 0.1446467 -0.058921933
-0.038496777 -0.30061376 0.1325982 -1.58551 0.06046101 -0.07804198 -1.0701857 0.08382698
0.12969771 0.25021827 0.46808475 0.3148299 0.56229436 0.1875931 0.5379658 -0.17408036
0.26204133 -0.14404915 -0.044498768 -1.0866925 0.00065798464 -0.1787397 -1.3986292 -1.4922041
0.3366906 -0.46276104 0.048750382 -0.19189298 -0.039810088 -0.096389346 -0.18885338 0.03636274
-0.042983014 -0.1682926 -0.65253353 0.24485147 0.015741697 0.31168753 0.59489185 -0.876291
0.12653255 0.051286206 0.24482778 -0.2930138 0.12904182 0.034754645 0.21744668 0.08295303
0.08660104 0.22468758 0.21078818 -0.3615191 -0.5600373 -1.2201525 -0.11179901 -0.25079638
-0.1448627 -0.008644081 0.1346771 0.22285594 -0.07823688 -0.5032514 0.13378361 0.09671686
-0.083700314 -0.08400424 -0.16408843 -0.18561599 -0.17495129 -0.036732227 0.020614406 0.017944232
-0.3035356 -0.106324375 -0.27793473 -0.27467206 -0.22459784 -0.099438325 -0.10051559 -0.17127036
0.3101084 -0.37411278 -0.22861858 -0.109577574 0.06762542 0.09658834 0.03923054 -0.43621105
-0.4090025 -0.23906519 0.0017927736 -0.07040173 0.1499905 -0.0671415 -0.2128717 0.013395876
-0.2115076 -0.12275162 -0.061795563 -0.15974315 -0.12330066 -0.1038807 -0.101395264 0.22435857
-0.3584161 -0.05208069 -0.17340259 -0.12153479 0.10422559 0.11448349 -0.13312015 -0.31863788
0.039472897 0.17669807 0.06064846 -0.23753673 -0.14625175 -0.34608653 0.022264332 -0.38833597
-0.15825418 0.3750814 -0.2702432 -0.17966501 -0.20375012 -0.28038523 -0.11934665 -0.0751937

mlp3.bias f4 [64]
00000000: 03bc 47be a033 523f 3ed2 803f ca71 bdbd
00000010: 9bd2 e0be a2a1 6c3f e629 0bbf 8b3c 84bd
00000020: 9df6 83be 6e2c 043e 2b72 d03e 75d6 18be
00000030: dcfa cdbd 4cc0 b4be 468d 05be 93ea 9a3e
00000040: ccff 19bf 76b0 98be aa5c 32bf 01c8 c4bd
00000050: ee5b 3ebc 3e7b e43d a1a9 ca3e f817 38be
00000060: e5f2 19be 5309 ed3e eb3c cb3e b3d3 763f
00000070: d96b 8abe 5e1f dabe 122b cb3f 0c84 b1be
00000080: 1ff8 80be 5e32 b8be 5fe3 d9be 4973 c8be
00000090: 47b3 91bd 08a0 5fbe 5ebd a3be 99fd 7cbe
000000a0: 14da c2be bf2e 89be 385c bdbd 4829 16bf
000000b0: 68fa 98bd 1fd9 c0bd 52d6 b1bd 6f79 013f
000000c0: 620a 97be 72e8 37be be4e ed3e 75b2 953a
000000d0: 1ea1 24bf 15ed 40bf 939d 1bbf a5c8 44be
000000e0: c036 1840 fb93 5a3e 8775 6abf edd0 6fbe
000000f0: 24c1 223e 0806 04bf b253 943e 18b0 2c3f
-0.19505315 0.82110023 1.0064161 -0.09250219 -0.4391068 0.9243413 -0.54360807 -0.0645686
-0.25774089 0.12907574 0.40712103 -0.14925559 -0.10057613 -0.3530296 -0.13042173 0.3025709
-0.6015594 -0.2982213 -0.69672644 -0.0960846 -0.011618597 0.11156319 0.39582542 -0.17977893
-0.15034063 0.46296176 0.39694914 0.9641678 -0.27035406 -0.42602056 1.5872519 -0.34671056
-0.251893 -0.35975927 -0.42556283 -0.39150456 -0.071142726 -0.21838391 -0.31980413 -0.24706115
-0.38057005 -0.26793477 -0.09246105 -0.5865674 -0.07469636 -0.094164126 -0.086834565 0.5057592
-0.2950011 -0.17959765 0.46349138 0.0011420982 -0.64308345 -0.7536176 -0.60787314 -0.19217165
2.3783417 0.21345513 -0.9158558 -0.23419543 0.1589399 -0.515717 0.28970104 0.674562
